models/checkpoint.pkl (torch, 483938 bytes, 54 tensors)

layer1.0.weight f4 [16, 3, 3, 3]
-0.16118078 -0.12824818 -0.14450443 -0.14754891 -0.032939453 0.09083464 0.1876969 -0.011734807
-0.009032321 -0.08756401 0.118767716 -0.007619723 -0.13221388 -0.10310403 -0.0070489366 -0.16670333
-0.16744603 -0.06107123 -0.042803723 0.030430995 0.12136623 0.05618958 0.12995821 0.06928908
-0.06823623 -0.00395296 0.026541708 0.13228133 0.0861754 -0.11988611 0.12220697 -0.0138647985
-0.17568964 0.19957985 -0.09712425 -0.026615981 0.18072882 -0.10199684 0.02035212 -0.11395191
-0.12150974 0.046263266 -0.119209595 -0.12269449 0.06224075 -0.03943132 0.09809052 -0.003922745
-0.11704904 0.13233545 0.018633246 0.055524655 0.0048687854 -0.02228868 -0.14197399 -0.146531
0.059971146 0.1496832 0.15325311 0.06842632 -0.14436607 -0.0045866417 0.08256733 0.016822567
-0.02278155 -0.0805552 -0.103589214 0.14342411 0.1790522 0.07713452 0.042842876 -0.19593313
0.14448623 0.1707851 0.10388077 -0.17359692 -0.15197892 -0.17886804 -0.107103884 0.04961516
-0.15802808 0.04170358 -0.11437654 0.07368179 -0.1694687 0.19700037 0.17945337 0.13633107
0.12345575 -0.046284687 -0.08342876 -0.15093243 0.044608038 -0.02584048 0.18334423 -0.06223984
-0.059637077 0.11171949 0.18760093 -0.08338304 0.0016269669 -0.15352292 -0.09062978 -0.103990495
0.03411653 -0.12138886 -0.08825976 -0.0608531 -0.046511043 0.040505018 0.14399278 -0.05542429
-0.03142488 -0.04330922 -0.12918796 0.11104572 -0.044245854 0.16533044 0.116756216 0.103980385
-0.1862124 -0.09048121 -0.13110706 -0.056269154 0.007976156 -0.0857839 -0.12933028 0.09738943
-0.076893054 -0.07255881 0.027746178 -0.17429139 -0.12819166 -0.12560932 -0.0654092 -0.10290651
0.11588566 0.15740001 -0.19263087 -0.040632904 -0.094728544 0.07917377 0.109170735 0.16847269
-0.06413444 0.153261 0.18890752 0.09468997 -0.11319913 -0.10891687 0.16497576 0.06952015
0.03739952 0.14881596 -0.09598786 -0.17132248 0.09672395 0.07467948 -0.07393843 0.19559926
0.10927931 0.007507186 0.07950288 -0.010984951 0.032282714 0.2007091 0.1996115 0.20524074
0.16165863 -0.07875932 -0.1577908 0.10907993 0.13109773 0.13196494 -0.20116696 0.066815875
0.0061259465 0.1263729 -0.03837172 -0.010821852 -0.12150804 0.12083413 -0.16624436 0.00031573515
0.010261913 -0.09935536 0.048619833 -0.15920745 0.024539681 0.15215608 -0.17106247 -0.17832364
0.1033833 -0.07142625 -0.018912507 -0.06243883 0.13223095 0.18538928 0.099093996 0.177807
-0.03398459 -0.016290449 0.061170895 -0.09182933 -0.17646681 0.14723174 0.16180328 0.049606696
0.15274951 -0.14201078 0.109591715 0.09003137 -0.046068307 -0.20086291 -0.11264412 -0.0082006175
-0.012840611 0.055011433 -0.041097183 0.07110503 -0.10155136 -0.113758236 0.017048128 0.158846
-0.038728286 0.11175072 0.20322806 0.08359548 0.019430805 -0.09393686 0.024615385 -0.13299808
0.11983869 0.012543525 0.11478108 -0.09533004 0.016567573 -0.08041167 0.11290275 -0.13688813
0.038185082 -0.020033315 -0.018591408 0.16586506 0.15305151 0.14434972 -0.04050768 -0.16470355
0.059613343 0.037376776 -0.18487915 0.07154902 -0.097218655 -0.11582 -0.040873118 0.050368354
00000000: 930c 25be 7e53 03be f8f8 13be 1017 17be
00000010: 85eb 06bd 8307 ba3d 9e33 403e 5943 40bc
00000020: 4dfc 13bc c254 b3bd 7d3c f33d dfae f9bb
00000030: 1363 07be 3528 d3bd c4fa e6bb 47b4 2abe
00000040: f976 2bbe d325 7abd f552 2fbd 6c4a f93c
00000050: dc8e f83d 0c27 663d c413 053e 6fe7 8d3d
00000060: 70bf 8bbd d587 81bb ff6d d93c c274 073e
00000070: ba7c b03d d986 f5bd a647 fa3d 2e29 63bc
00000080: fce7 33be a95e 4c3e 14e9 c6bd c209 dabc
00000090: fa10 393e b8e3 d0bd 7db9 a63c 9e5f e9bd
000000a0: 19da f8bd 8d7e 3d3d 2924 f4bd 4047 fbbd
000000b0: 28f0 7e3d bc82 21bd afe3 c83d 5f8a 80bb
000000c0: 68b7 efbd f282 073e c0a4 983c d26d 633d
000000d0: 558a 9f3b c096 b6bc a161 11be 390c 16be
000000e0: 4ea4 753d 8e46 193e 62ee 1c3e 1923 8c3d
000000f0: b3d4 13be 8a4b 96bb 0f19 a93d 7bcf 893c
00000100: 60a0 babc 20fa a4bd 9526 d4bd c5dd 123e
00000110: 7659 373e b4f8 9d3d 037c 2f3d b2a2 48be
00000120: 33f4 133e 4ae2 2e3e 71bf d43d 64c3 31be
00000130: 5da0 1bbe 2f29 37be 4859 dbbd 4439 4b3d
00000140: 1dd2 21be 60d1 2a3d 3f3e eabd 7ae6 963d
00000150: 3489 2dbe 77ba 493e a0c2 373e 5f9a 0b3e
00000160: 5ed6 fc3d 0395 3dbd b3dc aabd 088e 1abe
00000170: ebb6 363d 6aaf d3bc 97be 3b3e 34ef 7ebd
00000180: 0246 74bd 30cd e43d 751a 403e bac4 aabd
00000190: f33f d53a 1d35 1dbe 1b9c b9bd f8f8 d4bd
000001a0: c6bd 0b3d b99a f8bd 88c1 b4bd 1a41 79bd
000001b0: 5d82 3ebd 97e8 253d d872 133e 9504 63bd
000001c0: 60b7 00bd 0265 31bd d949 04be f06b e33d
000001d0: 243b 35bd 624c 293e e21d ef3d abf3 d43d
000001e0: 77ae 3ebe 364e b9bd ee40 06be 7c7a 66bd
000001f0: 6cae 023c 78af afbd 286f 04be 1c74 c73d
00000200: 1b7a 9dbd b799 94bd f44b e33c 7179 32be
00000210: ad44 03be bb9f 00be 42f5 85bd a6c0 d2bd
00000220: 7655 ed3d 782d 213e 0741 45be b06e 26bd
00000230: 0a01 c2bd dc25 a23d e894 df3d 1b84 2c3e
00000240: eb58 83bd 74f0 1c3e f970 413e d1ec c13d
00000250: f2d4 e7bd cf0f dfbd 68ef 283e 9560 8e3d
00000260: 3d30 193d 3663 183e 4895 c4bd 296f 2fbe
00000270: 3517 c63d 8ef1 983d 086d 97bd 2c4b 483e
00000280: d5cd df3d d7fe f53b 68d2 a23d 39fa 33bc
00000290: e13a 043d b086 4d3e f566 4c3e a12a 523e
000002a0: d789 253e 914c a1bd e993 21be 4c65 df3d
000002b0: 7c3e 063e d121 073e b6fe 4dbe c3d6 883d
000002c0: 2abc c83b e667 013e aa2b 1dbd 234e 31bc
000002d0: 35d9 f8bd e277 f73d f63b 2abe 4189 a539
000002e0: 9521 283c d37a cbbd 9725 473d 4707 23be
000002f0: 7107 c93c cece 1b3e 002b 2fbe 799a 36be
00000300: a0ba d33d ed47 92bd 67ee 9abc dcbf 7fbd
00000310: 8d67 073e b0d6 3d3e cbf1 ca3d 0a13 363e
00000320: 6d33 0bbd 8c73 85bc 558e 7a3d 0411 bcbd
00000330: b7b3 34be ebc3 163e c2af 253e 6430 4b3d
00000340: 5e6a 1c3e 466b 11be 9f71 e03d 5e62 b83d
00000350: 1fb2 3cbd 02af 4dbe f6b1 e6bd e25b 06bc
00000360: 6d61 52bc ab53 613d 8555 28bd 849f 913d
00000370: 29fa cfbd 14fa e8bd 84a8 8b3c 87a8 223e
00000380: 8da1 1ebd 90dd e43d 041b 503e 1b34 ab3d
00000390: 5a2d 9f3c f861 c0bd 34a6 c93c a630 08be
000003a0: fd6d f53d 5b83 4d3c 5812 eb3d 653c c3bd
000003b0: b8b8 873c e0ae a4bd 8f39 e73d 672c 0cbe
000003c0: f667 1c3d e81c a4bc 024d 98bc 88d8 293e
000003d0: 89b9 1c3e 6ad0 133e 62eb 25bd 0ca8 28be
000003e0: 1f2d 743d 6418 193d f650 3dbe 4b88 923d
000003f0: 931a c7bd 0933 edbd 926a 27bd 0c4f 4e3d

layer1.0.bias f4 [16]
-0.101837575 -0.14115112 -0.15094218 -0.027527455 -0.16879012 0.09740653 0.040606525 -0.0157624
0.11376453 -0.052232582 -0.023631347 -0.12144243 -0.1374565 -0.08587184 0.14573722 0.17992596
00000000: 3890 d0bd eb89 10be 9690 1abe 4281 e1bc
00000010: 51d7 2cbe 137d c73d 0753 263d 2620 81bc
00000020: 61fd e83d d5f1 55bd 8796 c1bc cfb6 f8bd
00000030: 66c1 0cbe 93dd afbd 233c 153e 833e 383e

layer1.1.weight f4 [16]
0.98294127 0.98292977 1.0045153 0.9957147 1.0027804 1.0073366 1.0105946 1.006078
1.0046588 1.0008247 0.99353766 1.001751 1.0201432 1.0092672 0.9984251 0.9992706
00000000: 0aa2 7b3f 49a1 7b3f f593 803f 29e7 7e3f
00000010: 1c5b 803f 68f0 803f 2a5b 813f 2ac7 803f
00000020: a998 803f 061b 803f 7c58 7e3f 6039 803f
00000030: 0d94 823f ab2f 813f ca98 7f3f 33d0 7f3f

layer1.1.bias f4 [16]
-0.006116128 0.015003137 0.012114707 -0.0122095505 0.0035250701 -0.0010877701 -0.0029653644 0.011680509
0.020584296 0.0033496453 0.024893522 0.021727694 -0.0018673535 0.03795473 0.00042212394 -0.02094124
00000000: cd69 c8bb b8cf 753c c47c 463c 910a 48bc
00000010: dd04 673b 8293 8eba 8f56 42bb 9b5f 3f3c
00000020: 66a0 a83c b985 5b3b 80ed cb3c 47fe b13c
00000030: fcc1 f4ba 6b76 1b3d 8450 dd39 f78c abbc

layer1.1.running_mean f4 [16]
-0.45755872 -0.15741275 -0.22832312 -0.069286555 -0.5984159 0.5654158 0.3647051 0.1339944
0.26836854 -0.111141086 -0.3202926 -0.12473772 0.110721454 0.07267418 -0.52942103 0.6286137
00000000: 2345 eabe cf30 21be 89cd 69be 1ce6 8dbd
00000010: c931 19bf 17bf 103f a0ba ba3e d435 093e
00000020: 9a67 893e f09d e3bd 64fd a3be 7d76 ffbd
00000030: eec1 e23d 33d6 943d 2388 07bf d4ec 203f

layer1.1.running_var f4 [16]
0.024646219 0.0036199878 0.005475983 0.012585428 0.038170338 0.039769623 0.022334307 0.0072394637
0.007899703 0.0055614943 0.0170044 0.005963403 0.015114493 0.0124775395 0.07540433 0.034849286
00000000: dee6 c93c 513d 6d3b e06f b33b 1c33 4e3c
00000010: 8058 1c3d 79e5 223d 70f6 b63c 0639 ed3b
00000020: c26d 013c 323d b63b d04c 8b3c a668 c33b
00000030: c7a2 773c 986e 4c3c 966d 9a3d 20be 0e3d

layer2.0.weight f4 [32, 16, 3, 3]
0.07367942 0.0599423 0.042944934 -0.026495248 0.05497877 -0.06309344 -0.008646737 0.04699625
-0.0058245454 0.058367636 -0.041137327 -0.050746933 0.012352599 0.040367495 0.033999242 0.0038691885
0.06629891 0.06325739 0.039117854 0.05186108 -0.05579096 0.06479279 -0.043778524 -0.08388707
-0.02074181 0.026289254 0.0031817125 -0.05392678 0.020402633 -0.008441535 -0.01884022 0.07174596
-0.040412575 -0.0648251 -0.061538044 0.05447373 0.023480598 0.06830304 -0.06965743 0.05175915
-0.060832974 -0.07599455 -0.058977257 -0.00014457895 -0.019811464 -0.05525679 -0.015968235 -0.056659456
-0.06888339 -0.012398831 -0.07442137 0.08538054 0.0023975952 -0.045626365 0.029621953 0.053481042
-0.0019042856 0.035319313 0.039251734 0.028986352 0.02770822 0.060991112 -0.026717031 -0.07773783
-0.0323172 -0.009694929 0.06383103 0.015626706 -0.032732196 0.056127816 -0.066748224 0.006309765
0.049971458 0.01876235 -0.06633337 0.04937947 -0.03959323 -0.074983045 0.07777226 -0.059513763
-0.053173754 -0.045197103 -0.031120103 -0.043670736 0.031860344 -0.041773327 0.072960384 -0.054776862
-0.031540893 0.038036212 0.013122927 0.033621084 0.09730258 0.030829825 -0.06425796 0.02203985
0.067599125 -0.028779833 -0.0487868 0.083252646 -0.004779409 0.039670527 0.06013562 0.08206405
0.08301851 -0.0072469446 0.047218736 0.056172512 0.04018299 -0.053750884 0.020822229 -0.0047316886
0.025810793 -0.024092974 0.014215732 0.023513967 0.07787257 -0.03741252 0.02235977 -0.07714757
0.057119336 0.043311667 -0.017318862 0.005401151 -0.026921684 -0.0063288636 -0.015509682 -0.069404945
-0.015884068 -0.025494805 0.021894295 -0.053380933 -0.0044449125 0.055026487 0.07457829 0.08517287
0.009666802 -0.015477503 0.07395405 0.03311308 0.042254526 0.084160514 0.081604294 0.04455731
0.03116648 -0.07647213 0.036268823 -0.016710369 -0.077586584 0.032850925 -0.06786228 -0.03225741
0.047762748 0.05430739 0.037413828 -0.024547188 0.014101979 0.012380552 0.007668318 -0.040470682
-0.011076725 0.04605683 -0.06911261 0.08352066 0.004251812 -0.034768235 -0.010454567 0.062342856
0.06820578 0.05768487 -0.06047211 0.07078664 0.05843441 -0.0027029747 -0.023743091 0.023942497
-0.04343394 -0.046046365 -0.04310252 -0.03375291 0.041578893 -0.035919335 0.00083176605 -0.06932829
-0.05370855 0.0630313 0.009815864 -0.0035625307 0.0034433764 0.0754915 0.041652106 -0.045271754
0.038972847 0.07315382 -0.08206165 0.025886796 0.025188116 0.027693601 0.013207974 0.053086426
-2.8987248e-05 0.08327863 -0.051868945 -0.030019099 0.051068697 0.04473793 -0.009757679 0.08961672
-0.046866808 -0.03800488 0.0035064826 -0.024290655 -0.036200397 0.018813035 0.055202108 -0.026215913
-0.011026989 -0.041340288 -0.07650859 0.09292863 0.025130663 -0.013463558 0.017363928 -0.03001285
0.048191752 0.018899446 0.06475113 0.037590697 -0.049650647 -0.034164503 0.023598114 0.039903972
-0.07937898 -0.025057565 0.034926265 0.07402064 0.05881266 -0.07576138 -0.07482183 0.02889609
-0.074238 -0.0703639 0.00676394 0.041647922 0.013118005 0.008915995 0.04154227 -0.062754355
-0.007704421 -0.07669426 -0.07525298 -0.0114227645 0.03189005 -0.06221195 -0.09416144 0.055762947
00000000: 3ce5 963d 0f86 753d 07e7 2f3d 900c d9bc
00000010: 6b31 613d 2237 81bd 0bab 0dbc 247f 403d
00000020: d4db bebb e712 6f3d 9d7f 28bd 04dc 4fbd
00000030: 8e62 4a3c 6358 253d ca42 0b3d 3692 7d3b
00000040: b9c7 873d 178d 813d 0b3a 203d 496c 543d
00000050: 1085 64bd 15b2 843d 1c51 33bd fccc abbd
00000060: baea a9bc 905c d73c 4784 503b 54e2 5cbd
00000070: 6c23 a73c 5d4e 0abc ce56 9abc 8cef 923d
00000080: a887 25bd 06c3 84bd 510f 7cbd d91f 5f3d
00000090: 625a c03c 77e2 8b3d 8ea8 8ebd 6701 543d
000000a0: ff2b 79bd 08a3 9bbd 2392 71bd 1e9a 17b9
000000b0: a74b a2bc f254 62bd d1cf 82bc bf13 68bd
000000c0: bc12 8dbd 7724 4bbc 3b6a 98bd fedb ae3d
000000d0: f920 1d3b b6e2 3abd bda9 f23c f00e 5b3d
000000e0: 3999 f9ba fcaa 103d 6dc6 203d c974 ed3c
000000f0: 59fc e23c d1d1 793d addd dabc 0335 9fbd
00000100: 0a5f 04bd 7bd7 1ebc d8b9 823d 9403 803c
00000110: 3212 06bd 48e6 653d 4bb3 88bd 25c2 ce3b
00000120: dfae 4c3d 80b3 993c cad9 87bd 2142 4a3d
00000130: 832c 22bd b690 99bd 1047 9f3d b4c4 73bd
00000140: b9cc 59bd 9920 39bd 96ef febc 16e0 32bd
00000150: fe7f 023d 821a 2bbd 416c 953d b45d 60bd
00000160: 0631 01bd dccb 1b3d 8c01 573c 43b6 093d
00000170: 9346 c73d d48e fc3c ad99 83bd ea8c b43c
00000180: 6971 8a3d afc3 ebbc abd4 47bd 5d80 aa3d
00000190: 979c 9cbb 907d 223d c550 763d 3211 a83d
000001a0: 9c05 aa3d c777 edbb 6f68 413d 2615 663d
000001b0: eb96 243d e329 5cbd 6193 aa3c 480c 9bbb
000001c0: 2871 d33c a15e c5bc 1ae9 683c 5da0 c03c
000001d0: a77b 9f3d df3d 19bd d62b b73c 8cff 9dbd
000001e0: f7f5 693d 9367 313d 49e0 8dbc 23fc b03b
000001f0: dd8a dcbc 5b62 cfbb 521c 7ebc 2e24 8ebd
00000200: 4e1f 82bc 7bda d0bc aa5b b33c f7a5 5abd
00000210: a1a6 91bb 7463 613d 81bc 983d 1d6f ae3d
00000220: 8261 1e3c 5a95 7dbc 3975 973d 95a1 073d
00000230: 1513 2d3d 595c ac3d 2720 a73d ba81 363d
00000240: d950 ff3c 6c9d 9cbd 9e8e 143d 2fe4 88bc
00000250: b7e5 9ebd b18e 063d 61fb 8abd 5920 04bd
00000260: dfa2 433d 6d71 5e3d 3e3f 193d 2f17 c9bc
00000270: fd0b 673c ccd7 4a3c 8446 fb3b 96c4 25bd
00000280: 277b 35bc 16a6 3c3d e98a 8dbd e10c ab3d
00000290: c952 8b3b 2369 0ebd a249 2bbc 395b 7f3d
000002a0: 79af 8b3d f846 6c3d 9ab1 77bd 96f8 903d
000002b0: eb58 6f3d 6424 31bb df80 c2bc 0e23 c43c
000002c0: c9e7 31bd 1d9b 3cbd 458c 30bd 7e40 0abd
000002d0: a14e 2a3d 2720 13bd e00a 5a3a fefb 8dbd
000002e0: 7ffd 5bbd 8e16 813d b8d2 203c 5979 69bb
000002f0: 45aa 613b 4a9b 9a3d 669b 2a3d e06e 39bd
00000300: fea1 1f3d acd1 953d f00f a8bd 8c10 d43c
00000310: 4f57 ce3c b1dd e23c 4266 583c 2771 593d
00000320: a429 f3b7 fd8d aa3d 8874 54bd 9dea f5bc
00000330: 692d 513d 1f3f 373d acde 1fbc f988 b73d
00000340: 69f7 3fbd 01ab 1bbd 04cd 653b 32fd c6bc
00000350: de46 14bd cb1d 9a3c 9b1b 623d c1c2 d6bc
00000360: 8baa 34bc 6f54 29bd 89b0 9cbd 5e51 be3d
00000370: d2de cd3c 4196 5cbc cc3e 8e3c 82dd f5bc
00000380: b764 453d 03d3 9a3c 3e9c 843d b4f8 193d
00000390: 7a5e 4bbd 14f0 0bbd d550 c13c 5972 233d
000003a0: 7291 a2bd 8645 cdbc d80e 0f3d 2298 973d
000003b0: 8be5 703d c828 9bbd 303c 99bd 7eb7 ec3c
000003c0: 180a 98bd f31a 90bd 0ba4 dd3b 0397 2a3d
000003d0: e7ec 563c 6514 123c 3a28 2a3d 5b85 80bd
000003e0: 5e75 fcbb e111 9dbd 3c1e 9abd 8c26 3bbc
000003f0: 249f 023d f5d1 7ebd b7d7 c0bd b067 643d

layer2.0.bias f4 [32]
0.01212244 -0.056150407 0.030589288 0.0014588019 -0.0064436817 0.060938314 0.03865578 -0.045566022
0.042928487 0.07454983 0.04218982 -0.042934485 -0.02976679 -0.055104103 -0.07358208 0.039666675
0.046862874 -0.03176971 0.02279954 0.0017510467 0.056893054 -0.02718435 -0.030540138 0.05945898
-0.05144495 0.05363657 -0.002832357 -0.0034080138 -0.035958115 0.04870624 0.087584436 0.026117396
00000000: 339d 463c f8fd 65bd 6396 fa3c 4535 bf3a
00000010: 8525 d3bb 749a 793d 8655 1e3d 70a3 3abd
00000020: c8d5 2f3d 95ad 983d 3ccf 2c3d 12dc 2fbd
00000030: 7cd9 f3bc d7b4 61bd 34b2 96bd 8679 223d
00000040: 49f3 3f3d f520 02bd 1ac6 ba3c 6183 e53a
00000050: b108 693d b7b1 debc 502f fabc 428b 733d
00000060: f1b7 52bd 05b2 5b3d 119f 39bb fc58 5fbb
00000070: d148 13bd 3280 473d 785f b33d 26f4 d53c

layer2.1.weight f4 [32]
1.0026214 1.0234029 1.0114173 1.0120628 0.9996758 0.99868053 0.98740655 1.0093935
0.9942973 0.9819885 1.0011436 1.0178902 1.0262736 0.9749955 1.0178055 0.9747038
1.0130848 1.0149739 0.99048567 0.99578345 0.99581724 1.0066036 1.0188144 0.9846835
1.0150133 1.0025611 1.0000687 0.96930885 0.9817835 1.032814 1.0223802 1.0207595
00000000: e655 803f defe 823f 1f76 813f 468b 813f
00000010: c1ea 7f3f 87a9 7f3f adc6 7c3f ce33 813f
00000020: 458a 7e3f 9963 7b3f 7925 803f 3a4a 823f
00000030: ef5c 833f 4e99 793f 7347 823f 3086 793f
00000040: c3ac 813f aaea 813f 7890 7d3f aaeb 7e3f
00000050: e1ed 7e3f 63d8 803f 8368 823f 3814 7c3f
00000060: f5eb 813f ec53 803f 4002 803f a024 783f
00000070: 2a56 7b3f 4033 843f 5bdd 823f 3fa8 823f

layer2.1.bias f4 [32]
0.026617937 0.028072288 0.012774335 -0.0014837437 0.030165374 -0.006333061 0.020108936 0.0044011623
-0.022224257 0.0025331918 0.011446408 0.018961065 0.02436036 -0.022131508 0.013636216 -0.011979028
0.0031646478 0.0074530984 -0.008436295 0.023387894 0.009800751 -0.00817132 0.007385548 0.004653942
0.013025228 -0.011158141 0.016128968 -0.003641716 -0.011619752 -0.010134696 0.024748806 0.017656012
00000000: dc0d da3c dbf7 e53c 724b 513c 2d7a c2ba
00000010: 601d f73c 9185 cfbb 7fbb a43c a037 903b
00000020: a50f b6bc e803 263b b789 3b3c 3c54 9b3c
00000030: 618f c73c 234d b5bc 6f6a 5f3c af43 44bc
00000040: fb65 4f3b 1f39 f43b 6338 0abc f897 bf3c
00000050: 5493 203c 00e1 05bc 7802 f23b 1880 983b
00000060: c467 553c a3d0 36bc e620 843c dba9 6ebb
00000070: c660 3ebc ff0b 26bc 02be ca3c 57a3 903c

layer2.1.running_mean f4 [32]
0.37326163 -0.14810131 -0.020115755 -0.6311991 0.078185216 -0.26651418 0.2828045 -0.06974003
-0.78078926 -0.028413936 -0.001140143 -0.27670085 -0.77274776 0.18548663 -0.38722596 -0.07430112
-0.7485741 -0.11388195 0.099978074 0.031532004 0.15771703 -0.18118772 -0.07044976 -0.09501861
0.17937003 0.52152413 -0.029379645 0.21846682 -0.016284442 -0.5100802 0.0210989 -0.35201794
00000000: 261c bf3e dfa7 17be ccc9 a4bc 4496 21bf
00000010: 921f a03d 8c74 88be c0cb 903e dcd3 8ebd
00000020: cee1 47bf 58c4 e8bc da70 95ba bcab 8dbe
00000030: ccd2 45bf 35f0 3d3e 7b42 c6be 302b 98bd
00000040: 8da2 3fbf f13a e9bd 4ec1 cc3d b427 013d
00000050: 9380 213e 4689 39be f747 90bd 1e99 c2bd
00000060: c7ac 373e 9b82 053f 95ad f0bc c4b5 5f3e
00000070: f366 85bc 9e94 02bf 9ad7 ac3c b23b b4be

layer2.1.running_var f4 [32]
0.11188488 0.10603529 0.04452946 0.44280484 0.13374865 0.07979127 0.08543074 0.06808502
0.20521289 0.07567564 0.04798812 0.24136077 0.42750508 0.39030942 0.04953964 0.097733825
0.35555208 0.42314515 0.04267851 0.10969399 0.090591446 0.7976827 0.038855843 0.06794301
0.13894467 0.21331446 0.09585068 0.16839552 0.16962844 0.13375038 0.023477301 0.11943096
00000000: e623 e53d 0829 d93d 8664 363d 51b7 e23e
00000010: 68f5 083e 9b69 a33d 50f6 ae3d 2970 8b3d
00000020: 5423 523e d4fb 9a3d 318f 443d 4727 773e
00000030: f2e1 da3e a3d6 c73e 14ea 4a3d ac28 c83d
00000040: ec0a b63e 7ba6 d83e a9cf 2e3d 3ea7 e03d
00000050: 0288 b93d ef34 4c3f 4e27 1f3d b425 8b3d
00000060: 8347 0e3e 1b6f 5a3e 5c4d c43d e06f 2c3e
00000070: 14b3 2d3e dcf5 083e 7853 c03c 3898 f43d

layer3.0.weight f4 [64, 32, 3, 3]
-0.041630972 -0.026928997 0.04965806 -0.042969156 -0.019016242 -0.06355585 -0.026723381 -0.029041441
0.049519897 0.02134613 0.02795232 0.011620425 -0.0150666265 0.012134556 0.03856102 -0.030812113
0.048583165 -0.020865938 0.02755692 0.0040513133 0.023844989 0.045014113 0.06633706 0.014958155
0.012217406 -0.06710569 -0.020729752 0.0026495464 -0.010706894 0.021970293 0.018573118 -0.010423218
-0.007432098 0.028321836 0.05183996 -0.018018646 0.030800669 0.06389335 0.059116572 -0.06321493
-0.05646644 -0.019840958 -0.016222293 -0.0072343443 0.056748025 0.03356331 0.029017301 0.050921172
-0.03066854 0.057531636 -0.04075943 -0.026313733 -0.043644574 -0.043678317 0.0060557732 0.036863666
0.053292632 -0.039512858 -0.029005464 0.053497624 -0.016286734 -0.023956597 0.0009884008 -0.008156792
-0.00750133 -0.00797484 -0.04959921 0.007854817 -0.04625787 -0.002714041 0.050225273 0.06719442
-0.08406926 0.005479756 -0.0359549 0.034063336 -0.04611624 -0.028505407 -0.004452298 -0.005494145
-0.046413966 0.05034568 0.014535247 0.0020133574 0.0075385943 -0.029373677 0.035924446 -0.020623555
0.051542968 -0.058452558 0.004929701 -0.009315716 -0.026843267 0.01639214 -0.023935601 -0.028384918
-0.042868048 0.026588822 0.02195508 -0.012810472 0.03761002 0.02117568 0.025062008 -0.04622562
-0.04330745 -0.05923626 0.05189397 -0.0051599396 -0.05002205 0.04224958 0.011975139 -0.06916667
0.034268748 0.0065197498 -0.024384715 0.015904827 0.0063637607 -0.028346026 -0.01086438 -0.027558738
0.011848546 0.029753402 -0.03616058 -0.006553954 -0.048106845 -0.0004822679 -0.014571077 -0.03608804
-0.04386704 0.04526655 0.041673057 -0.025494866 -0.04719756 -0.022745537 -0.061844833 0.0076035555
-0.045011785 -0.02980304 -0.012215196 0.0008157587 0.03233131 0.028872224 -0.05493545 0.006924737
-0.06443985 0.01880874 -0.03365251 0.0053066825 -0.039193545 0.040849306 -0.017799506 -0.002259167
0.038845435 0.0271594 0.016211882 -0.03226302 0.050133362 -0.016524207 0.061871074 -0.0056148544
0.012697837 0.009219684 -0.069498114 -0.018321568 0.026665473 -0.011206346 -0.0342273 0.047558438
0.014556776 0.04346194 -0.004460519 0.0061152014 -0.031508524 0.04820956 -0.0076879906 0.012406386
-0.040849272 0.0074218586 -0.005269826 0.06774562 0.021347918 0.04286384 -0.04255583 -0.06303986
0.027501611 -0.009366247 0.03534181 -0.012220473 0.055824425 0.0017859929 -0.021861507 -0.006199782
0.04915214 0.03232358 0.04802798 0.027730698 0.005948047 -0.023949878 0.0055599487 -0.00041426392
0.02796952 -0.032964252 0.028437292 0.0034224235 0.03629367 -0.022769362 0.0574328 -0.049383763
-0.030643951 -0.032754127 -0.052208517 -0.059389986 -0.011765372 0.0065248865 0.036193803 0.045245916
0.058047347 0.021918274 -0.035936337 0.026026247 -0.07230512 -0.033535063 -0.045031797 -0.069364175
-0.01124045 0.02535343 -0.040196463 -0.059458263 -0.027559057 0.0052613784 -0.009035624 -0.082115754
-0.024321895 0.014048102 -0.03534254 -0.029888557 -0.01409776 -0.025816672 -0.021816485 -0.051284853
-0.04773722 0.04475395 0.02872178 -0.035431374 0.02557581 -0.037852176 0.052498765 0.03194566
-0.004149757 -0.0060008126 0.024913158 -0.023015477 0.033155717 0.042193905 0.009718026 -0.006987941
00000000: 3d85 2abd 339a dcbc 4066 4b3d 6d00 30bd
00000010: f3c7 9bbc 9229 82bd feea dabc 51e8 edbc
00000020: 60d5 4a3d 14de ae3c 44fc e43c 9863 3e3c
00000030: 03da 76bc 04d0 463c 29f2 1d3d af69 fcbc
00000040: 24ff 463d 0bef aabc 0dbf e13c e1c0 843b
00000050: 9156 c33c b860 383d b9db 873d 0d13 753c
00000060: 842b 483c b56e 89bd 71d1 a9bc 03a4 2d3b
00000070: f86b 2fbc 0bfb b33c a726 983c 25c6 2abc
00000080: f588 f3bb 3203 e83c 2356 543d d79b 93bc
00000090: af51 fc3c 84da 823d 3824 723d d476 81bd
000000a0: 5b49 67bd 8189 a2bc 9de4 84bc 140e edbb
000000b0: 9e70 683d ae79 093d b1b5 ed3c b892 503d
000000c0: 973c fbbc 4ba6 6b3d 5cf3 26bd e68f d7bc
000000d0: a7c4 32bd 09e8 32bd 826f c63b 5bfe 163d
000000e0: 6049 5a3d 3cd8 21bd de9c edbc 5320 5b3d
000000f0: c26b 85bc a040 c4bc 3a8d 813a 11a4 05bc
00000100: b8cd f5bb e7a8 02bc 8b28 4bbd 7eb1 003c
00000110: e478 3dbd 0dde 31bb 04b9 4d3d 3a9d 893d
00000120: 812c acbd 868f b33b 7245 13bd ff85 0b3d
00000130: 62e4 3cbd 2c84 e9bc 95e4 91bb 3b08 b4bb
00000140: 921c 3ebd 4637 4e3d 3f25 6e3c 88f2 033b
00000150: 5006 f73b 11a1 f0bc 8325 133d bbf2 a8bc
00000160: b81e 533d f36b 6fbd 5489 a13b f2a0 18bc
00000170: 69e6 dbbc cf48 863c 9814 c4bc 7d87 e8bc
00000180: 6896 2fbd cdd0 d93c 24db b33c 04e3 51bc
00000190: f70c 1a3d 9f78 ad3c d74e cd3c 1357 3dbd
000001a0: 2763 31bd b8a1 72bd c68e 543d b614 a9bb
000001b0: ece3 4cbd e50d 2d3d 6033 443c 41a7 8dbd
000001c0: 635d 0c3d a0a3 d53b 74c2 c7bc d74a 823c
000001d0: 1887 d03b ed35 e8bc 8300 32bc ddc2 e1bc
000001e0: 6720 423c 68bd f33c 1e1d 14bd 8dc2 d6bb
000001f0: af0b 45bd e7d8 fcb9 87bb 6ebc 0dd1 13bd
00000200: edad 33bd 6b69 393d 5eb1 2a3d 9cda d0bc
00000210: 3b52 41bd d954 babc 0251 7dbd 3f27 f93b
00000220: 475e 38bd 8125 f4bc 3f22 48bc a4d8 553a
00000230: d66d 043d 7185 ec3c ff03 61bd e7e8 e23b
00000240: 0af9 83bd c914 9a3c 37d7 09bd aee3 ad3b
00000250: 6989 20bd 9a51 273d 45d0 91bc 880e 14bb
00000260: 641c 1f3d 647d de3c c8ce 843c 3a26 04bd
00000270: a458 4d3d c65d 87bc 866c 7d3d d0fc b7bb
00000280: 970a 503c 280e 173c 0755 8ebd 1d17 96bc
00000290: 8d71 da3c d29a 37bc ed31 0cbd a3cc 423d
000002a0: 8b7f 6e3c 2605 323d 8c29 92bb 0762 c83b
000002b0: 150f 01bd 6377 453d 8aeb fbbb 2844 4b3c
000002c0: 9151 27bd 1033 f33b 81ae acbb 37be 8a3d
000002d0: d4e1 ae3c fe91 2f3d 064f 2ebd 0b1b 81bd
000002e0: 0f4b e13c e374 19bc 93c2 103d 6138 48bc
000002f0: 27a8 643d fa17 ea3a e716 b3bc 8a27 cbbb
00000300: c153 493d bb65 043d fdb8 443d 7d2b e33c
00000310: d6e7 c23b 8932 c4bc 3b30 b63b 9031 d9b9
00000320: 5620 e53c 8605 07bd 53f5 e83c bd4a 603b
00000330: aca8 143d d086 babc a83e 6b3d a146 4abd
00000340: 0609 fbbc 3129 06bd 99d8 55bd ea42 73bd
00000350: 8cc3 40bc b7ce d53b f43f 143d c853 393d
00000360: 0ec3 6d3d f48d b33c fb31 13bd ff34 d53c
00000370: b514 94bd 105c 09bd 4373 38bd ce0e 8ebd
00000380: dd29 38bc ffb1 cf3c 0ca5 24bd 828a 73bd
00000390: 88c3 e1bc a467 ac3b 270a 14bc 4e2c a8bd
000003a0: b63e c7bc 032a 663c 57c3 10bd d9d8 f4bc
000003b0: 4bfa 66bc 7c7d d3bc 7cb8 b2bc 1110 52bd
000003c0: 1a88 43bd eb4f 373d f049 eb3c 7d20 11bd
000003d0: 5c84 d13c e20a 1bbd f208 573d 74d9 023d
000003e0: affa 87bb 77a2 c4bb ae16 cc3c f48a bcbc
000003f0: 4ace 073d 84d3 2c3d 5b38 1f3c 19fb e4bb

layer3.0.bias f4 [64]
0.03876576 0.025447546 0.02319966 -0.0015664423 -0.05580386 0.04056757 -0.05746578 -0.042211793
0.040426455 -0.017271766 0.045254923 -0.012075227 -0.03529342 -0.014365978 -0.04196529 -0.019266719
-0.05855145 0.025796758 0.016966876 0.053439237 -0.037550244 0.046258643 -0.035458915 0.036741916
0.025433257 -0.0061535044 0.05653388 0.00081194856 0.03457642 0.008578441 -0.050218184 -0.036060423
-0.05431424 -0.042766478 -0.020411305 0.049130064 -0.046948623 -0.009244348 0.024726313 0.047703553
-0.048926532 -0.033384256 -0.050090715 0.044970572 0.016256649 0.0011473801 0.022300633 0.007861759
-0.043210834 -0.04295705 0.06013982 -0.015408015 0.04469456 0.009117137 -0.00820949 -0.055506244
0.033096615 0.025806198 0.057259515 0.01735983 0.00078490115 -0.0003977415 0.031201212 -0.02802232
00000000: d8c8 1e3d 5f77 d03c 370d be3c 1551 cdba
00000010: 9792 64bd 2e2a 263d 3d61 6bbd 46e6 2cbd
00000020: 3696 253d 857d 8dbc 3a5d 393d 2cd7 45bc
00000030: d58f 10bd 475f 6bbc cce3 2bbd 3dd5 9dbc
00000040: a5d3 6fbd b953 d33c 1efe 8a3c 1ae3 5a3d
00000050: 49ce 19bd b479 3d3d 5e3d 11bd b17e 163d
00000060: 6859 d03c 56a3 c9bb 1290 673d f2d8 543a
00000070: 01a0 0d3d 978c 0c3c 95b1 4dbd 18b4 13bd
00000080: 9c78 5ebd e72b 2fbd 9c35 a7bc 9b3c 493d
00000090: 334d 40bd 9b75 17bc d68e ca3c cd64 433d
000000a0: 3067 48bd eebd 08bd ec2b 4dbd 1033 383d
000000b0: aa2c 853c b063 963a d1af b63c 9bce 003c
000000c0: d8fd 30bd bbf3 2fbd 2c55 763d e671 7cbc
000000d0: a511 373d 0b60 153c 1981 06bc 845a 63bd
000000e0: 5190 073d 8567 d33c f488 6a3d 3436 8e3c
000000f0: d3c1 4d3a f687 d0b9 af99 ff3c 108f e5bc

layer3.1.weight f4 [64]
1.0452297 1.0371408 1.0299832 1.040177 1.0498295 1.0383284 1.0410048 1.037278
1.019938 1.0401348 1.0418851 1.0276071 1.0293812 1.0322136 1.0229547 1.0361993
1.036629 1.0370941 1.0448782 1.0380375 1.0334997 1.045621 1.0340236 1.0305299
1.0273966 1.03004 1.0183096 1.0390613 1.0283918 1.0249965 1.0423381 1.0316792
1.0351393 1.023875 1.0417916 1.0263637 1.0377932 1.0353413 1.0343621 1.0422597
1.0363023 1.0278696 1.0382614 1.0372095 1.040672 1.0299947 1.0114181 1.0397042
1.0463842 1.0404607 1.0402247 1.0482116 1.0390868 1.0301371 1.0360643 1.0346435
1.0332291 1.0287695 1.0446068 1.0418767 1.0272925 1.042236 1.0372163 1.0384116
00000000: 16ca 853f 08c1 843f 7dd6 833f 8524 853f
00000010: d060 863f f2e7 843f a53f 853f 87c5 843f
00000020: 548d 823f 2323 853f 7e5c 853f a188 833f
00000030: c3c2 833f 931f 843f 2ef0 823f 2ea2 843f
00000040: 42b0 843f 80bf 843f 92be 853f 6ade 843f
00000050: b849 843f e9d6 853f e35a 843f 67e8 833f
00000060: bb81 833f 5ad8 833f f857 823f f6ff 843f
00000070: 58a2 833f 1633 833f 566b 853f 100e 843f
00000080: 727f 843f 560e 833f 6d59 853f e35f 833f
00000090: 68d6 843f 1086 843f fa65 843f c468 853f
000000a0: 8ea5 843f 3b91 833f c0e5 843f 48c3 843f
000000b0: bd34 853f ded6 833f 2676 813f 0715 853f
000000c0: ebef 853f d12d 853f 1526 853f cc2b 863f
000000d0: cc00 853f 88db 833f c19d 843f 336f 843f
000000e0: da40 843f b8ae 833f adb5 853f 375c 853f
000000f0: 527e 833f fd67 853f 81c3 843f acea 843f

layer3.1.bias f4 [64]
0.040782385 0.032591734 0.024830045 0.026513776 0.03230081 0.012446133 0.029562812 0.02833844
-0.0015193273 0.016209034 0.023403252 0.018583683 0.018813176 0.025412913 0.0050546923 0.013218433
0.021231106 0.014520015 0.022066133 0.027399998 0.025586592 0.04098417 0.020033466 0.015955996
0.016391654 0.018264186 0.014131064 0.023190362 0.022877645 0.00077721954 0.030485608 0.02735736
0.024938513 0.00016729473 0.03301981 -0.0016578117 0.025257753 0.027267758 0.023780448 0.036920514
0.020995693 0.008287635 0.015670143 0.025734957 0.033843298 0.018116396 -0.007819959 0.029616373
0.026432771 0.029839408 0.024020439 0.03402399 0.035706412 0.020873567 0.021504752 0.025482323
0.024748594 0.015568978 0.037266206 0.033091143 0.010594375 0.03407519 0.026474204 0.024723873
00000000: 6e0b 273d e97e 053d 6168 cb3c 6b33 d93c
00000010: db4d 043d deea 4b3c b62d f23c 0426 e83c
00000020: 2a24 c7ba cfc8 843c 2db8 bf3c cf3c 983c
00000030: 171e 9a3c be2e d03c d5a1 a53b 2092 583c
00000040: dbec ad3c 5be5 6d3c 09c4 b43c f675 e03c
00000050: f99a d13c 04df 273d 391d a43c 26b6 823c
00000060: ca47 863c c69e 953c fa85 673c b7f9 bd3c
00000070: e669 bb3c 52be 4b3a f4bc f93c 8b1c e03c
00000080: da4b cc3c d66b 2f39 c83f 073d ee4a d9ba
00000090: 59e9 ce3c a260 df3c 37cf c23c f739 173d
000000a0: 29ff ab3c dcc8 073c ac5e 803c 1ed2 d23c
000000b0: 459f 0a3d d668 943c 491f 00bc 099e f23c
000000c0: 8a89 d83c c671 f43c 83c6 c43c bd5c 0b3d
000000d0: e340 123d 0bff aa3c bc2a b03c 4ec0 d03c
000000e0: 90bd ca3c 0715 7f3c 73a4 183d 948a 073d
000000f0: 0894 2d3c 6d92 0b3d 6ee0 d83c b889 ca3c

layer3.1.running_mean f4 [64]
-0.16230182 0.60368985 0.35521984 0.7535419 -0.13184151 0.04894788 -0.45965755 -0.02949921
0.1953492 0.14394361 0.1818706 0.058202423 0.44056144 0.105325244 0.113273345 0.5408491
0.24844721 1.0701318 0.11382898 -0.06883001 -1.2871214 -0.15812357 0.27114108 0.6171959
-0.78014195 -1.505624 -0.23735635 0.45244423 0.022851272 1.3073509 0.12663655 0.51089156
1.0877478 0.5494717 -0.03416231 0.70747995 -0.7333198 0.5516287 0.51944226 -0.44395852
0.29877102 -0.12694909 0.11434337 -0.67006046 0.18430623 -1.3746481 0.2568791 -1.1030612
0.21218039 -0.33578658 0.6529446 -0.27115607 -0.19227362 0.26825228 -1.1128827 0.21065134
-1.2087063 -0.08812426 0.18908888 0.20666283 0.65449375 -0.29265866 -0.8422818 0.11626071
00000000: 7332 26be 6b8b 1a3f 60df b53e 1fe8 403f
00000010: 7601 07be 927d 483d 3c58 ebbe 54a8 f1bc
00000020: 9f09 483e f465 133e 493c 3a3e aa65 6e3d
00000030: 4591 e13e c3b4 d73d dbfb e73d 1675 0a3f
00000040: f268 7e3e 14fa 883f 2b1f e93d c0f6 8cbd
00000050: 65c0 a4bf 25eb 21be 01d3 8a3e 8d00 1e3f
00000060: 62b7 47bf 4ab8 c0bf 8b0d 73be c5a6 e73e
00000070: 9732 bb3c 4657 a73f 03ad 013e cac9 023f
00000080: 523b 8b3f 2daa 0c3f c7ed 0bbd 681d 353f
00000090: d9ba 3bbf 8a37 0d3f 2bfa 043f 884e e3be
000000a0: 84f8 983e f1fe 01be db2c ea3d 1589 2bbf
000000b0: c6ba 3c3e 78f4 afbf a885 833e 1c31 8dbf
000000c0: d145 593e 38ec abbe 6127 273f f8d4 8abe
000000d0: 60e3 44be 5d58 893e f172 8ebf fcb4 573e
000000e0: e3b6 9abf 7e7a b4bd 84a0 413e 6c9f 533e
000000f0: e78c 273f 5bd7 95be c89f 57bf 181a ee3d

layer3.1.running_var f4 [64]
0.11585955 0.20727907 0.18787584 0.15854424 0.15121537 0.27492043 0.1894196 0.17021456
0.19326024 0.25300124 0.20372994 0.19997606 0.19521421 0.17127627 0.2835016 0.17422917
0.15580332 0.24248809 0.15415096 0.18912476 0.332701 0.21090062 0.20384476 0.15574962
0.3762858 0.28096977 0.28731275 0.13895977 0.5674381 0.28030685 0.15794823 0.1783611
0.2924992 0.20505126 0.17539528 0.23025489 0.1993932 0.18811388 0.16664718 0.24027921
0.20292418 0.24788576 0.15641356 0.23099917 0.13136879 0.32649744 0.51439595 0.5004417
0.15064412 0.3317768 0.23945169 0.2425656 0.2727539 0.149268 0.48027033 0.16935901
0.6518241 0.20183231 0.21552594 0.19164282 0.2573028 0.22808722 0.26659477 0.13494071
00000000: c647 ed3d f740 543e 8662 403e 6c59 223e
00000010: 34d8 1a3e 5fc2 8c3e 36f7 413e ba4c 2e3e
00000020: 03e6 453e 6189 813e 959e 503e 86c6 4c3e
00000030: 3ce6 473e 0c63 2f3e 1f27 913e 2269 323e
00000040: e88a 1f3e cc4e 783e c0d9 1d3e eca9 413e
00000050: c957 aa3e 55f6 573e aebc 503e d47c 1f3e
00000060: 88a8 c03e 45db 8f3e a81a 933e 784b 0e3e
00000070: a043 113f 6184 8f3e 2ebd 213e 4ba4 363e
00000080: 75c2 953e f5f8 513e d29a 333e f0c7 6b3e
00000090: bb2d 4c3e eda0 403e 8fa5 2a3e c10b 763e
000000a0: 5bcb 4f3e c4d5 7d3e e02a 203e 0c8b 6c3e
000000b0: 8a85 063e ac2a a73e 74af 033f f21c 003f
000000c0: 7442 1a3e a6de a93e d332 753e 1e63 783e
000000d0: 66a6 8b3e b6d9 183e fee5 f53e 736c 2d3e
000000e0: f2dd 263f 21ad 4e3e d5b2 5c3e 043e 443e
000000f0: 31bd 833e b28f 693e 1c7f 883e e62d 0a3e

fc1.weight f4 [25, 576]
-0.013635387 0.013076977 0.028740652 -0.027149007 0.013665704 0.057010103 -0.04936514 -0.029091075
-0.0055510835 0.021643974 0.047706205 0.026061904 0.036500763 -0.03458921 -0.0030367153 -0.02413219
-0.022632763 -0.017335905 0.004005391 -0.009031794 0.0025019045 -0.038444124 -0.032963056 0.049280602
0.017535519 0.028045971 0.009388255 0.0018239832 -0.012820477 -0.0350138 0.010905666 0.03804465
-0.004764421 -0.009511422 -0.016642233 -0.0031415904 -0.028367909 0.005712153 -0.026178172 0.0056311535
-0.0012239999 0.029098336 0.046214864 0.038376648 0.03760283 0.05238862 -0.00551047 -0.020522477
0.054824095 0.03802258 0.014310271 0.03828444 0.0010645944 -0.006475312 0.020196568 -0.0004586178
0.02057924 -0.0036150033 0.07646318 0.009831438 -0.0013931325 0.021381522 0.03806723 0.011531124
0.016400814 0.012629874 0.019917723 0.07082913 0.018380797 -0.006659088 0.013426982 -0.009762995
0.026710803 -0.012215425 -0.013926683 0.053940892 0.018338509 -0.022014134 0.011202137 0.0009379932
-0.013471941 0.012007845 0.012642439 0.0013028253 0.0025614775 0.0053828773 0.022195084 0.03441263
-0.04631974 -0.009406644 -0.037076805 -0.02389383 -0.030029098 0.049449094 0.053568076 0.0587868
0.033320274 0.03314822 -0.0004944632 0.02399276 0.045099203 -0.028803721 -0.06828376 -0.025287637
-0.026676627 0.004366492 -0.006604498 -0.071137145 -0.015806919 -0.015749084 -0.048185788 -0.024048146
0.023718288 -0.00035891065 -0.008505431 0.020523457 -0.000370571 0.013262571 -0.01080119 -0.007907203
-0.037133217 -0.018844053 -0.010593548 0.013301255 -0.036183797 -0.034231562 -0.038983922 0.013219185
0.016422903 -0.050844807 -0.053391982 -0.027944626 -0.01762053 0.055047855 0.04911303 -0.0047849705
-0.03154814 -0.049489092 0.0074364487 0.027243286 0.026581233 -0.038610723 -0.032609403 -0.0006346272
-0.021901442 -0.023025727 0.051970117 -0.015719531 -0.011213779 0.029901095 -0.01615782 0.051408343
0.0162222 0.059669767 0.06155934 0.05854729 -0.014885328 -0.009872025 0.036047094 -0.021514047
-0.01721838 -0.030115183 0.051213764 0.017710632 -0.061099507 -0.034299597 0.01527122 -0.045590498
0.034631647 -0.010293905 0.0048372927 -0.023550304 0.0052471943 -0.052151658 0.05447252 0.04017501
-0.003210682 0.00761273 0.0597248 0.05512936 0.02145162 0.0015894223 0.035416488 0.03368783
0.05088301 0.044801284 0.009147072 0.017992213 -0.004515827 -0.035908382 0.04131078 0.06253606
-0.07044676 0.032782696 0.016527317 -0.0002950284 0.01305088 -0.052091334 0.014879532 -0.027730852
0.019863056 0.004573928 0.017899891 0.051914435 0.021841753 -0.010895105 -0.026010608 -0.021423973
0.051484633 0.03729162 0.030939996 0.03872867 0.05073532 0.0064666965 0.01594573 0.024711965
0.024771407 0.03152845 0.02017533 0.0619016 -0.004734875 -0.0068363794 0.028966596 0.04576998
-0.008446442 -0.00858003 0.028820973 0.05212189 0.040323123 -0.041805442 0.040610433 0.039969403
-0.010703078 0.024723131 0.00646508 0.0018636199 -0.018297765 0.029048026 0.009149977 -0.020821702
-0.028421761 0.031830058 -0.0010332549 0.049852274 0.043512344 -0.012184956 0.05110384 -0.01666376
-0.04614267 0.04295135 -0.014961122 -0.021198377 0.03012968 -0.015776064 -0.021571036 0.029766824
00000000: f566 5fbc d140 563c 8471 eb3c 9867 debc
00000010: 1ee6 5f3c 6d83 693d 1a33 4abd 6850 eebc
00000020: dde5 b5bb b44e b13c 9567 433d c67f d53c
00000030: d381 153d 6aad 0dbd a103 47bb dfb0 c5bc
00000040: 5868 b9bc 0704 8ebc a83f 833b 17fa 13bc
00000050: fef6 233b 9677 1dbd 4504 07bd 75da 493d
00000060: a6a6 8f3c aac0 e53c 32d1 193c b812 ef3a
00000070: fa0c 52bc a16a 0fbd aead 323c b5d4 1b3d
00000080: dc1e 9cbb ccd5 1bbc 4b55 88bc 24e3 4dbb
00000090: d163 e8bc 032d bb3b 9b73 d6bc 8a85 b83b
000000a0: 9f6e a0ba a25f ee3c cc4b 3d3d d530 1d3d
000000b0: 6d05 1a3d 7395 563d 2c91 b4bb c11e a8bc
000000c0: 3b8f 603d 91bd 1b3d a075 6a3c 25d0 1c3d
000000d0: dc89 8b3a db2e d4bb 4673 a53c a472 f0b9
000000e0: cb95 a83c b1e9 6cbb ba98 9c3d 0a14 213c
000000f0: c599 b6ba 4d28 af3c 62ec 1b3d 0aed 3c3c
00000100: 005b 863c 88ed 4e3c 7e2a a33c dd0e 913d
00000110: 5393 963c 7b34 dabb d8fc 5b3c f8f4 1fbc
00000120: 9dd0 da3c 3523 48bc be2c 64bc 20f1 5c3d
00000130: a43a 963c fc56 b4bc 2b89 373c a8e3 753a
00000140: 6bb9 5cbc 8dbc 443c 3c22 4f3c 90c3 aa3a
00000150: 76de 273b d962 b03b 77d2 b53c 42f4 0c3d
00000160: c5b9 3dbd 531e 1abc d9dd 17bd febc c3bc
00000170: 95ff f5bc 228b 4a3d 336a 5b3d 6dca 703d
00000180: d77a 083d 6ec6 073d dd9e 01ba 778c c43c
00000190: f1b9 383d c8f5 ebbc 5bd8 8bbd 0528 cfbc
000001a0: f188 dabc ca14 8f3b 8b6a d8bb 5ab0 91bd
000001b0: 837d 81bc 3904 81bc 765e 45bd 9e00 c5bc
000001c0: db4c c23c 2c2c bcb9 5d5a 0bbc cf20 a83c
000001d0: 3349 c2b9 414b 593c 79f7 30bc 378d 01bc
000001e0: 0019 18bd d85e 9abc 9090 2dbc 82ed 593c
000001f0: 7635 14bd 6536 0cbd 9bad 1fbd 4895 583c
00000200: 5389 863c a542 50bd 8db1 5abd 21ec e4bc
00000210: ee58 90bc dc79 613d bf2a 493d 3ecb 9cbb
00000220: 9f38 01bd 13b5 4abd 74ad f33b 502d df3c
00000230: e3c0 d93c 4726 1ebd 7091 05bd 1c5d 26ba
00000240: a76a b3bc 73a0 bcbc 9ede 543d 3fc6 80bc
00000250: 00ba 37bc 24f3 f43c 685d 84bc 8e91 523d
00000260: 6be4 843c 4968 743d a625 7c3d 48cf 6f3d
00000270: 97e1 73bc 46be 21bc 1ea6 133d 3a3e b0bc
00000280: 8f0d 8dbc 1eb4 f6bc 86c5 513d e315 913c
00000290: 7a43 7abd bc7d 0cbd 2434 7a3c 1abd 3abd
000002a0: ead9 0d3d c4a7 28bc 2782 9e3b 91ec c0bc
000002b0: a8f0 ab3b fa9c 55bd 941e 5f3d 8d8e 243d
000002c0: 4e6a 52bb 3574 f93b fea1 743d 53cf 613d
000002d0: 4fbb af3c 2a54 d03a e110 113d 40fc 093d
000002e0: b46a 503d 8d81 373d 9add 153c 6864 933c
000002f0: 81f9 93bb ab14 13bd 7e35 293d e812 803d
00000300: 6446 90bd 2647 063d 4c64 873c 0bae 9ab9
00000310: 5cd3 553c b95d 55bd 48c9 733c d02b e3bc
00000320: d9b7 a23c e4e0 953b cba2 923c 3ba4 543d
00000330: 7aed b23c 6281 32bc 3314 d5bc 5481 afbc
00000340: 8de1 523d 19bf 183d e075 fd3c f4a1 1e3d
00000350: d7cf 4f3d 95e6 d33b 9fa0 823c bf70 ca3c
00000360: 68ed ca3c fa23 013d bc46 a53c 888c 7d3d
00000370: 0327 9bbb b503 e0bb 5b4b ed3c 4d79 3b3d
00000380: f262 0abc 4193 0cbc f619 ec3c c37d 553d
00000390: dc29 253d 2f3c 2bbd 2057 263d f5b6 233d
000003a0: f65b 2fbc 2a88 ca3c 06d9 d33b b544 f43a
000003b0: 32e5 95bc 20f6 ed3c c9e9 153c 4692 aabc
000003c0: c1d4 e8bc 3c60 023d 486e 87ba e631 4c3d
000003d0: 003a 323d 69a3 47bc 4352 513d 7082 88bc
000003e0: 1900 3dbd c1ed 2f3d 7e1f 75bc 38a8 adbc
000003f0: 85d2 f63c ce3c 81bc beb5 b0bc 8ed9 f33c

fc1.bias f4 [25]
0.035999324 -0.03879038 0.033954356 -0.004929884 0.03911361 0.00076294714 0.005592347 0.021707337
-0.002200886 0.014366949 -0.022360288 0.040464267 -0.0031636287 0.037223384 0.056622904 -0.018111464
-0.013642115 0.010056642 0.023363696 0.011746799 -0.019345015 -0.013926931 0.0012981308 0.002457716
-0.05021795
00000000: 0774 133d a9e2 1ebd b913 0b3d dd8a a1bb
00000010: 9835 203d 8400 483a 0240 b73b 96d3 b13c
00000020: bd3c 10bb 5a63 6b3c ec2c b7bc dcbd 253d
00000030: e254 4fbb 8c77 183d 6bed 673d 7e5e 94bc
00000040: 2d83 5fbc 9dc4 243c 3965 bf3c a575 403c
00000050: 7079 9ebc c82d 64bc 0b26 aa3a a211 213b
00000060: 56b1 4dbd

fc2.weight f4 [5, 25]
0.16193059 0.15495855 0.06904098 0.07599334 -0.17756289 0.05168278 -0.0015926447 -0.1455456
-0.024472803 -0.08560417 -0.20106964 0.048104856 -0.03814671 0.08638224 0.21525869 -0.21970622
-0.07242226 0.007952617 0.18393031 0.15137835 0.08639141 0.23746394 -0.10122098 0.004095409
0.12899728 -0.10829268 -0.1740309 -0.048007894 0.2242986 -0.2038042 -0.11739314 -0.08296975
0.024518702 0.15633518 0.07544903 -0.1094754 -0.09182168 0.20846029 0.08592231 0.14493673
0.22760536 0.031034496 -0.09138676 -0.17939594 -0.19585674 0.18768294 0.02216034 -0.22030582
0.13031104 -0.15211415 -0.024788853 0.16818853 0.107817695 -0.06578565 -0.09616907 -0.070742525
0.17919722 -0.15322417 0.08749798 0.10846209 -0.13039647 -0.12875505 -0.005394203 0.10208027
-0.1608576 -0.076584846 0.04092488 0.19147001 0.06272181 0.10364039 -0.085862495 -0.20409395
-0.10532684 -0.2053572 0.18595919 -0.12286517 -0.13137999 0.19492128 -0.17252596 0.2038469
-0.04341476 -0.054314975 -0.07465223 -0.08608577 0.04738473 0.18046482 0.019586554 0.013680165
-0.23447865 -0.0113542285 -0.19795209 -0.14910606 -0.15974635 0.13990982 0.10958332 0.020134827
-0.06566919 0.23185523 0.114085145 -0.15066423 -0.17432842 -0.0402126 -0.20864323 0.06359911
-0.16607095 -0.012848043 0.13894178 -0.017742505 -0.10405871 0.17845415 0.0036157917 0.006025684
-0.22884078 -0.1464182 0.08317809 -0.12988298 0.21880712 -0.15439221 -0.23124886 -0.11658875
-0.08021685 0.013250142 -0.045448806 0.10095825 0.043180883
00000000: 22d1 253e 74ad 1e3e 5b65 8d3d 65a2 9b3d
00000010: 0cd3 35be 53b1 533d 4ac0 d0ba e809 15be
00000020: 307b c8bc 3d51 afbd 33e5 4dbe 9909 453d
00000030: b93f 1cbd 2ce9 b03d c66c 5c3e abfa 60be
00000040: 1f52 94bd b14b 023c 3a58 3c3e ed02 1b3e
00000050: fbed b03d bf29 733e f24c cfbd c832 863b
00000060: dd17 043e 8dc8 ddbd 2835 32be eda3 44bd
00000070: 88ae 653e 0cb2 50be d16b f0bd 0bec a9bd
00000080: 72db c83c 5416 203e 0585 9a3d a334 e0bd
00000090: 010d bcbd 9d76 553e 09f8 af3d 4b6a 143e
000000a0: 6111 693e 0e3c fe3c fb28 bbbd 92b3 37be
000000b0: ab8e 48be f52f 403e 9a89 b53c d997 61be
000000c0: 4270 053e d0c3 1bbe fe11 cbbc 9d39 2c3e
000000d0: 86cf dc3d a0ba 86bd 4af4 c4bd 75e1 90bd
000000e0: 7a7f 373e cce6 1cbe 2432 b33d 5f21 de3d
000000f0: a786 05be 5dd8 03be dbc1 b0bb 760f d13d
00000100: dbb7 24be 84d8 9cbd d9a0 273d b710 443e
00000110: 4b74 803d 6a41 d43d add8 afbd 01fe 50be
00000120: 99b5 d7bd 2849 52be 166c 3e3e bca0 fbbd
00000130: 7a88 06be 7299 473e a5aa 30be 3ebd 503e
00000140: add3 31bd 6179 5ebd 45e3 98bd bc4d b0bd
00000150: 7e16 423d c5cb 383e fb73 a03c c522 603c
00000160: 2c1b 70be 1607 3abc f4b3 4abe 42af 18be
00000170: 8c94 23be 8544 0f3e 386d e03d cbf1 a43c
00000180: 917d 86bd 756b 6d3e 79a5 e93d b947 1abe
00000190: 2683 32be f8b5 24bd 92a6 55be 4040 823d
000001a0: 810e 2abe 9980 52bc c146 0e3e bb58 91bc
000001b0: bc1c d5bd afbc 363e ebf6 6c3b 1a73 c53b
000001c0: 3d55 6abe a7ee 15be 4659 aa3d 0b00 05be
000001d0: f90e 603e fe18 1ebe 80cc 6cbe 15c6 eebd
000001e0: bb48 a4bd 2017 593c 8728 3abd 33c3 ce3d
000001f0: 70de 303d

fc2.bias f4 [5]
0.14730825 0.045922637 0.0039674267 0.049359832 0.18388517
00000000: f9d7 163e 6019 3c3d 3001 823b 892d 4a3d
00000010: 654c 3c3e

exp_avg f4 [16, 3, 3, 3]
-6.5333385e-05 -0.00024502154 -0.0003097027 0.00018219172 0.00012024579 0.00011559547 0.0003094746 0.00034628506
0.00035786402 0.00035361573 -2.749468e-05 -0.00031339272 0.00044376173 0.00014455372 -0.00017703878 0.00042909684
0.0002735707 3.893458e-05 0.0004619693 0.00016920106 -0.00011318346 0.00067767943 0.00046752574 0.00014452479
0.00083774107 0.0006943601 0.0003844474 -0.008666341 -0.007961597 -0.008970938 -0.008721454 -0.008737561
-0.0097473245 -0.011944806 -0.012201599 -0.012431353 -0.009343648 -0.0074727256 -0.007139007 -0.00891947
-0.007416578 -0.006550396 -0.008466039 -0.0074974685 -0.0055789263 -0.015921038 -0.013894873 -0.013457475
-0.015450964 -0.013930557 -0.013084958 -0.014610991 -0.013419295 -0.011736641 -0.0013786729 -0.0017305005
-0.0025284057 -0.0009753831 -0.0011724092 -0.0016338298 -0.0002861244 -0.0003428221 -0.00059527 -0.0017572712
-0.0024758657 -0.0038354797 -0.0016051981 -0.0022857469 -0.003520783 -0.00055239705 -0.0012350811 -0.0020782966
-0.0002806672 -0.0011865463 -0.0025652878 -6.785971e-05 -0.0010222362 -0.0022981148 0.0008365021 -0.00018454186
-0.0011656596 -0.0030899935 -0.0033360096 -0.0036054463 -0.003270301 -0.0034211525 -0.0034841886 -0.0032244716
-0.0032707322 -0.0032244497 -0.0018671595 -0.00202041 -0.00216117 -0.0020077867 -0.0020853651 -0.002062506
-0.0016909046 -0.0017146659 -0.0015645698 -0.0024402025 -0.00251329 -0.0025914344 -0.0025982999 -0.0026184823
-0.0025814173 -0.0022860689 -0.0022144397 -0.0020694342 0.000719969 0.0007476325 0.00042978115 0.00053757057
0.00048425223 9.088497e-05 0.00022736273 0.00011868088 -0.00024590685 0.0003363861 0.00049335696 0.0003935953
0.000364907 0.00042073018 0.000236803 0.00014730418 0.00018832013 5.0998453e-05 0.00028731185 0.00041358723
0.00030960224 0.00025704218 0.00027013686 7.231572e-05 4.4570315e-05 1.9163897e-05 -0.00016158438 0.00016112886
0.000103714476 0.00010400729 0.000351967 0.00026121334 0.00021652241 0.0004508157 0.00037074916 0.00031780894
-0.00042024723 -0.00047915208 -0.0005002836 -0.00013285736 -0.00020620624 -0.0002767087 -7.3273244e-05 -0.000115159695
-0.00016846845 -0.00014361556 -0.00019186742 -0.0001379255 8.732541e-05 1.1402355e-05 7.621584e-07 0.00014169172
6.243595e-05 7.523509e-05 -0.0010515937 -0.0010161045 -0.0009013917 -0.0010525768 -0.0009884695 -0.000825185
-0.0011362389 -0.001159525 -0.0009386923 0.00036299505 0.0005208009 0.00059863384 0.00020010819 0.0003773751
0.00050223124 -0.00017158044 -2.5196336e-05 0.00014432616 -0.0010334007 -0.00088855356 -0.00084687956 -0.0011889433
-0.0010285038 -0.00091058866 -0.00169695 -0.0015564446 -0.0013259939 0.00083966146 -4.7097026e-05 0.00020179986
0.0011922648 0.00016388718 0.00022979813 0.0016759357 0.0003957776 5.3294774e-05 -0.0007187125 -0.0010718909
-0.0008178304 -0.0009766362 -0.0013531753 -0.0010445111 -0.0017362612 -0.0023125329 -0.001850978 0.0019057398
0.0014422351 0.0016633305 0.0014061702 0.00078666746 0.0009294784 0.0002888777 -0.00046004553 -0.00023606833
0.0007191084 0.0005328085 0.0009718102 0.0008125801 0.00049580686 0.0007393617 0.0011450865 0.0006524974
0.00073443225 -0.00032059645 -0.00028909039 -8.8943096e-05 -0.0003673092 -0.00052788376 -0.0004632327 -0.00068035565
-0.0009844844 -0.0010235383 0.0011014283 0.0011148452 0.0014399013 0.001070908 0.00076856196 0.0009245025
0.0010763472 0.00058185577 0.0006482263 -4.14917e-05 0.0007112577 0.0013633444 0.00028961583 0.0010614602
0.0016094724 0.0015353601 0.0021376382 0.0023779767 -0.0016756075 -0.0013389853 -0.0011915757 -0.0010086037
00000000: 9803 89b8 3c76 80b9 985f a2b9 b80a 3f39
00000010: 782c fc38 d86b f238 fa40 a239 988d b539
00000020: b29f bb39 8065 b939 60a4 e6b7 dc4e a4b9
00000030: b1a8 e839 5893 1739 7ca3 39b9 67f8 e039
00000040: 0a6e 8f39 b04d 2338 7834 f239 906b 3139
00000050: e85c edb8 4ca6 313a 3e1e f539 948b 1739
00000060: da9b 5b3a b805 363a a88f c939 45fd 0dbc
00000070: 5c71 02bc d7fa 12bc 6ee4 0ebc fd27 0fbc
00000080: 3eb3 1fbc 26b4 43bc 37e9 47bc e0ac 4bbc
00000090: 1a16 19bc c4dd f4bb 55ee e9bb f822 12bc
000000a0: c406 f3bb b4a4 d6bb 24b5 0abc 53ad f5bb
000000b0: 6dcf b6bb d66c 82bc 52a7 63bc be7c 5cbc
000000c0: 0a26 7dbc fe3c 64bc 4b62 56bc f062 6fbc
000000d0: 9adc 5bbc 0a4b 40bc 96b4 b4ba f6d1 e2ba
000000e0: 9cb3 25bb dab0 7fba 86ab 99ba 3b26 d6ba
000000f0: f802 96b9 cebc b3b9 e50b 1cba 3d54 e6ba
00000100: 2242 22bb ac5c 7bbb 8365 d2ba 78cc 15bb
00000110: f0bc 66bb bdce 10ba 72e2 a1ba 0834 08bb
00000120: 8426 93b9 e385 9bba 631e 28bb e84f 8eb8
00000130: 8efc 85ba f89b 16bb b548 5b3a 9481 41b9
00000140: 0cc9 98ba 7d81 4abb f4a0 5abb 5a49 6cbb
00000150: 8c52 56bb 6a35 60bb fc56 64bb a851 53bb
00000160: c859 56bb 4a51 53bb 7abb f4ba db68 04bb
00000170: 6aa2 0dbb 1295 03bb 9faa 08bb 1c2b 07bb
00000180: 58a1 ddba a4be e0ba 4012 cdba ceeb 1fbb
00000190: 02b6 24bb 0ed5 29bb 3d48 2abb d89a 2bbb
000001a0: ff2c 29bb dfd1 15bb 2220 11bb 589f 07bb
000001b0: 4dbc 3c3a c5fc 433a 4054 e139 c0eb 0c3a
000001c0: 3ce3 fd39 7f99 be38 3868 6e39 50e4 f838
000001d0: 0fed 80b9 fa5c b039 a054 013a 785b ce39
000001e0: fd50 bf39 7395 dc39 524e 7839 aa75 1a39
000001f0: cd77 4539 2ce7 5538 58a2 9639 bdd6 d839
00000200: 1c52 a239 9ec3 8639 28a1 8d39 35a8 9738
00000210: 03f1 3a38 28c2 a037 fa6e 29b9 b3f4 2839
00000220: 4981 d938 7d1e da38 3688 b839 76f3 8839
00000230: 4b0a 6339 765b ec39 1c61 c239 989f a639
00000240: a154 dcb9 b436 fbb9 7725 03ba a04f 0bb9
00000250: 1139 58b9 3713 91b9 46aa 99b8 e481 f1b8
00000260: e8a6 30b9 8297 16b9 0530 49b9 18a0 10b9
00000270: 7922 b738 be4c 3f37 2097 4c35 1593 1439
00000280: 0cf0 8238 88c7 9d38 a1d5 89ba cf2e 85ba
00000290: 5f4b 6cba 9ef6 89ba 888f 81ba 3a51 58ba
000002a0: daed 94ba 34fb 97ba 9312 76ba 5f50 be39
000002b0: 5b86 083a a3ed 1c3a 22d4 5139 6eda c539
000002c0: 2ba8 033a 46ea 33b9 b85c d3b7 4256 1739
000002d0: 2c73 87ba d2ed 68ba 2001 5eba 51d6 9bba
000002e0: dcce 86ba 92b4 6eba 326c deba 9d01 ccba
000002f0: f9cc adba ba1c 5c3a 0c8a 45b8 3d9a 5339
00000300: c545 9c3a 21d9 2b39 f7f5 7039 12ab db3a
00000310: 5f80 cf39 d488 5f38 fb67 3cba b17e 8cba
00000320: ab63 56ba 7902 80ba 075d b1ba fae7 88ba
00000330: 4293 e3ba dd8d 17bb 849c f2ba 04ca f93a
00000340: 6109 bd3a 1c04 da3a 3e4f b83a 5c38 4e3a
00000350: 3da8 733a 8274 9739 4432 f1b9 1c89 77b9
00000360: 8c82 3c3a 2cac 0b3a 14c1 7e3a 5403 553a
00000370: 09f9 013a b9d1 413a ba16 963a 5c0c 2b3a
00000380: ea86 403a ba15 a8b9 0e91 97b9 f686 bab8
00000390: 6893 c0b9 ae61 0aba 0ade f2b9 e559 32ba
000003a0: d109 81ba 3f28 86ba cd5d 903a ff1f 923a
000003b0: 12bb bc3a b65d 8c3a 5279 493a 505a 723a
000003c0: 3814 8d3a ae87 183a bbed 293a 6007 2eb8
000003d0: b273 3a3a 3fb2 b23a 94d7 9739 b220 8b3a
000003e0: eff4 d23a 233e c93a 9e17 0c3b d4d7 1b3b
000003f0: 0fa0 dbba e480 afba a52e 9cba 2033 84ba
