models/checkpoint.pkl (torch, 482914 bytes, 54 tensors)

layer1.0.weight f4 [16, 3, 3, 3]
00000000: 6ca6 e93d 0b0e 41be 1d1f bb3d c65b 4a3d
00000010: 1485 113d 068e ce3d 0a8f 17bd 8c9a a5bd
00000020: 693a 183e ffb8 22be 8a5d f9bd 7383 dbbd
00000030: 9d2b 50bb 918e 273d 758c 133e 5c26 ccbd
00000040: f7dd d8bd 044f bbbd ef2d f33d 54ba 02be
00000050: 0c2d 15be a953 2d3e 936e 863d 29c3 fabc
00000060: 33a7 fabd 622e f13c e495 653c 7a93 c5bd
00000070: c7e3 dd3c f850 3a3e c3c0 df3d 68db f43d
00000080: ebc3 0f3e e41d 36be ce98 163b be93 123e
00000090: 120d a03d 8e88 e83d 134b 923d 4f2a e23d
000000a0: f7e0 be3d 54db 3f3e 8fc0 603d 38c8 973d
000000b0: 57b3 2fbe c9ba 0a3c a592 f9bd 1415 86bd
000000c0: 4bdb f5bd ca5a 8dbd 0f3e 25be febf 993d
000000d0: fa04 64bd f10c 263e 0fc9 17be 8aa9 19be
000000e0: 7ea1 e43c f1e8 443b a52a 46be a5af 013e
000000f0: b6b2 0c3e a255 0f3d f688 713c 51a0 4d3d
00000100: 0eed 09be 7f6e 10be 1e8f 353e 6589 22be
00000110: 421b 663a 948f 38be 7f29 f0bd ebbc 34be
00000120: 77f9 383d 0876 0cbd a52c 3cbd b39b f6bd
00000130: b135 3fbe 4656 c23d 44ed e3bd 2311 1abe
00000140: fb42 bf3d edf2 9d3d c1c1 c3bd a8b5 413e
00000150: 2eba 79bc 3e00 3ebe 7b9c eebd b224 e13d
00000160: 9c2f 703c 4ec2 063e 67ef 133e 3671 26be
00000170: b2fb 7c3c dacb 11be 6d7b c53c e107 203e
00000180: 5f2a 3c3e cae5 98bc 9466 30be 8102 0fbe
00000190: fed9 c43c b542 e93d 513c 473e bb43 40be
000001a0: 9be2 2fbe ce0a ba3d 6840 d1bb 8620 98bd
000001b0: 3778 9b3c d2de 3dbe 7737 913d e000 033e
000001c0: 6535 d6bb 137c 953d 4e5c 983d ffdf 5cbd
000001d0: f680 303e 3bdf abbd 8b6e 1f3e 656b 413e
000001e0: 468f 2bbe 8c47 12bd 7ac1 fbbc 694a fdbd
000001f0: 3b56 043e 3351 37be 6016 08bd 95ad 393e
00000200: c2e7 5f3d 7184 3ebe 0695 273e b03f 26be
00000210: 0951 2ebe d098 ab3d d8c5 f13d 5107 14be
00000220: 7aaf 8a3d e8c9 ac3c 79bb 44bc 1727 303e
00000230: c373 6c3d 41c3 33be ed4c b5bd 3709 32bd
00000240: a808 ecbd 0c93 68bd 2ed1 273e 9bb5 373e
00000250: dc3d adbc bf92 50bd f45a b8bd 5c6b f53d
00000260: db56 0e3e 4e02 fabd 8621 e93c 0115 2ebe
00000270: a672 eabd 8bff 46bd 98e5 18bd 0de6 53be
00000280: 8f1c 843d cc77 29bd 4319 10be c41c e6bc
00000290: 715a 3cbe edfd 923d 634a b4bb 78ad 2a3e
000002a0: d51c 253e d985 f83d 5929 a3bd 75d5 e4bd
000002b0: 4b89 e1bd 9ef9 0ebe 8a10 1e3e 297f a2bd
000002c0: f417 383e 4a9f c4ba b250 b6bb 0849 3f3e
000002d0: 1594 2dbe a06d 3a3e 244c e3bd 8949 2bbe
000002e0: a59e 233e b4d5 623d fd1d 68bd e248 3dbe
000002f0: 3105 453e ad7e 43be efd7 3e3d bbd2 2cbe
00000300: 13e4 5b3d 1714 75bb 5e6d f9bd 81e2 47ba
00000310: 043e 213d fd8f 573b 901d aebd 6c80 d7bd
00000320: f032 863d b405 4c3d 3baf 89bc ed42 efbd
00000330: 7f7e 043e a57f aabb 82b1 1bbe e06d 853b
00000340: ac2c d7bc 6ddf 113e 5ced 1c3c 59af 4a3d
00000350: 30bb 0cbe ea93 42be a1be 693c 07dd 983d
00000360: 5b0c 24bb 7af8 ccbd 9808 f83c 508c e33d
00000370: 49e0 833d fc6a f9bd d73a abbc 1c0b 343d
00000380: 77d8 603c 02cb 4f3e 4403 2abe 3d96 44bd
00000390: 4e1e ed3d db1c 05bd c11f 4b3d bac7 15be
000003a0: ded2 22be 15b5 c13d 9ffe ec3d d544 15be
000003b0: 4b06 a53d 65a3 39bb 0b1b 34be 460d 40be
000003c0: fd45 89bd c30f 123d 5ca6 253e 2864 4a3d
000003d0: afc0 1fbc a4dd 56be c1ff c1bd d3a8 af3d
000003e0: c66d 0bbc 13d7 06be ac9a 763d 292a 813d
000003f0: d09a b5bd 8a20 1fbd 9aa8 a33d 33c5 3dbd
0.114086956 -0.18853013 0.09136794 0.04940393 0.035527304 0.100856826 -0.037001647 -0.08086118
0.14866032 -0.15890883 -0.12176044 -0.10718431 -0.0031764277 0.040907446 0.14409049 -0.09968254
-0.105892114 -0.091459304 0.118739955 -0.12766391 -0.14567965 0.16926445 0.06564059 -0.030610638
-0.12238922 0.029441062 0.0140127875 -0.096472695 0.027086152 0.1819495 0.10925438 0.11955911
0.1403958 -0.1778484 0.0022979262 0.14314172 0.07814993 0.11354171 0.071432255 0.11043226
0.093202524 0.18736011 0.05487114 0.074112356 -0.17158256 0.008467385 -0.12186173 -0.06546989
-0.120047174 -0.06902082 -0.16136955 0.07507323 -0.05566881 0.16215874 -0.14822792 -0.1500608
0.027909037 0.003004607 -0.19352205 0.1266466 0.13740048 0.034993775 0.014742127 0.050201718
-0.13469335 -0.14104651 0.17730376 -0.15872724 0.00087778654 -0.1802352 -0.11726665 -0.17650191
0.045159783 -0.03429225 -0.045941014 -0.12041416 -0.18672825 0.094891116 -0.11129239 -0.150456
0.093389474 0.0771235 -0.0955844 0.18916953 -0.015242143 -0.1855478 -0.1165094 0.10993327
0.014659788 0.13160059 0.14446793 -0.16254124 0.015440868 -0.1423792 0.024106706 0.15628006
0.18375538 -0.01866426 -0.1722663 -0.13965799 0.024029728 0.113896765 0.19456603 -0.18775837
-0.17176287 0.09084092 -0.0063858517 -0.07428078 0.018978221 -0.1854203 0.07090657 0.12793303
-0.006537127 0.07299056 0.07439481 -0.053924557 0.17236695 -0.08392187 0.15569513 0.18888624
-0.16753873 -0.035712764 -0.030731905 -0.12367708 0.1292352 -0.17902069 -0.033224463 0.18132623
0.05466438 -0.1860521 0.16365442 -0.16235232 -0.170231 0.08378756 0.11805314 -0.14455916
0.06771751 0.02109237 -0.012007588 0.17202412 0.057727586 -0.17554952 -0.08852563 -0.04346582
-0.115250885 -0.05678086 0.1638839 0.1794037 -0.02114766 -0.050921198 -0.09001723 0.11983368
0.1390032 -0.12207471 0.028458368 -0.170002 -0.11447649 -0.04858355 -0.037328333 -0.20693226
0.064507596 -0.041374013 -0.14072137 -0.028089888 -0.18393876 0.07177339 -0.0055020317 0.16667736
0.1612428 0.121349044 -0.07966871 -0.11173526 -0.11012515 -0.13962409 0.15435997 -0.0793441
0.17977887 -0.0015001085 -0.005563819 0.18680203 -0.1695102 0.18205881 -0.11098507 -0.1672727
0.15978487 0.055379584 -0.056669224 -0.18484834 0.19240262 -0.19091292 0.04659265 -0.16877262
0.053684305 -0.0037396008 -0.12179063 -0.0007624999 0.039365783 0.003289222 -0.08501732 -0.105225414
0.06552684 0.049810126 -0.01680719 -0.11682687 0.1293888 -0.0052032047 -0.15204433 0.004071936
-0.026266418 0.14245386 0.009578075 0.04948363 -0.13743281 -0.19001737 0.014266641 0.074640326
-0.0025031778 -0.10008331 0.030277535 0.11110747 0.064392634 -0.12178609 -0.02090208 0.043955907
0.013723484 0.20292285 -0.16602808 -0.04799484 0.11578046 -0.03249822 0.04959083 -0.14626971
-0.15900752 0.09458367 0.115720026 -0.14577039 0.08057841 -0.002832615 -0.17588441 -0.18755063
-0.06702802 0.035659563 0.16176742 0.049411923 -0.009750529 -0.20982987 -0.09472609 0.085771225
-0.008510059 -0.13167982 0.0602061 0.063068695 -0.08867419 -0.03884939 0.079911426 -0.046330642

layer1.0.bias f4 [16]
00000000: cc02 12be 8116 fbbd 908e 003d b5a9 2e3e
00000010: e724 0b3d 045b 8eb9 0c22 203e dddb 0dbe
00000020: 31f0 243d 41f7 ff3d 3b93 1fbe 3ea0 823d
00000030: 1b3c 1f3e 6703 263d e249 94bc 7f6b e5bc
-0.1425888 -0.12260152 0.03138596 0.17056926 0.03397074 -0.00027152163 0.15637988 -0.13853402
0.040268127 0.12498332 -0.15583508 0.0637822 0.15550272 0.04053059 -0.018101636 -0.02800536

layer1.1.weight f4 [16]
00000000: d780 803f 4d2f 823f 24bb 7e3f 71cc 7c3f
00000010: df9b 813f 1292 7c3f 72fa 7c3f 7861 7d3f
00000020: 4285 7c3f b152 7e3f 3b8a 7c3f 3d9a 813f
00000030: 0e60 833f 3f3f 833f 2b84 823f 6fbd 843f
1.0039319 1.0170685 0.99504304 0.9874945 1.0125693 0.98660386 0.9881965 0.9897685
0.98640835 0.9934493 0.9864842 1.0125195 1.0263689 1.0253676 1.0196584 1.037031

layer1.1.bias f4 [16]
00000000: 7f21 793d b5c1 c3bb 9f34 033d 0cc8 cc3c
00000010: 1427 aa3c ce77 cb3c adc6 f63c 12dc 6a3d
00000020: 1b11 40bb d886 b43c fb1a 19bb ec6c f13c
00000030: 0d24 253c 8edb 743d cbd9 e63c c0e5 973c
0.06082296 -0.0059740194 0.032032605 0.024997734 0.020770587 0.0248374 0.030124033 0.05733878
-0.002930707 0.022036955 -0.002336203 0.029470883 0.010079396 0.059779696 0.028180024 0.01854217

layer1.1.running_mean f4 [16]
00000000: 4394 92be 92a5 823e d930 1abf 2e03 2a3e
00000010: d853 0d3e e0a0 87be 080c 413e b462 f1be
00000020: 3f76 b5bd e2d6 d9bd 8cec 13bf e531 ff3d
00000030: 91b6 f03e 72dd 013f 9c0c a6ba f177 373e
-0.2862874 0.25516945 -0.60230786 0.16602775 0.13801515 -0.26489925 0.18852246 -0.47145617
-0.08860444 -0.10636689 -0.57782817 0.124606885 0.47014287 0.50728524 -0.0012668553 0.17916848

layer1.1.running_var f4 [16]
00000000: b2c6 c83b ee2b c73c fa4e 8d3d 72f9 303a
00000010: 031b 1a3b 7618 5b3c a7e6 903a 91e2 8a3c
00000020: ee87 613b c405 0d3c 82b5 e33c 1cc3 423b
00000030: 375d a53c 5805 253d 12f3 513a 0c5e 3a3c
0.006127202 0.02431294 0.06899829 0.00067510374 0.0023514635 0.013372531 0.0011055068 0.016953738
0.0034413296 0.008607332 0.02779651 0.0029718345 0.02018605 0.0402883 0.00080089376 0.011374962

layer2.0.weight f4 [32, 16, 3, 3]
00000000: 0629 8abd e39d 66bb 35b3 2a3c f0cd a1bd
00000010: fefb 7b3d 1d7a 8c3c c20c a5bd 8de2 98bb
00000020: 243e 47bd ecb7 abbc 8ace 85bb 0be1 9cbc
00000030: 4740 d4bc 857d 28bb 63b2 893d 63ec 9ebd
00000040: c923 30bd 6679 b6bc 4ee4 bc3c 1e4a 903d
00000050: 58cc 32bd 9f5d 143d 0622 69bc 68f1 c0bc
00000060: fd8b d23b bc97 103c 8243 663d 06a7 803d
00000070: 063e ddbc e042 fd3c fadc 563c 900f 70bd
00000080: c81a 7c3d 3ccb debd 4b6b e73c c642 913c
00000090: 0c36 e3bc 0184 00bd e136 a5bc 1137 2ebd
000000a0: f515 1bbd 50fe 10bd 70de 08bd e92a 523d
000000b0: 8893 603d 0eea 0e3d 2a28 76bd cef4 c43b
000000c0: 66e8 3bbd 29b6 443d 8a64 03bd cd61 edbb
000000d0: f39e 3a3d c3b7 ff3c 676f 543c a8db f63b
000000e0: 6a4a 333c 230e b4bd bd7d 4bbd 0281 453d
000000f0: c690 2d3d e3a5 663d ad09 9c3d ae51 efbc
00000100: 48c1 4dbd fbe8 4d3d 13a3 a9bc de23 dd3b
00000110: 75c7 8a3c d7c4 013d fdf6 aabb 1f3c 50bd
00000120: c2be 9839 d3ea 983d 7a95 d6bc 80bd 243c
00000130: fd65 ce3c 1fbb a13b 9086 64bc 1c8f 773d
00000140: a278 063d a90f 613d 59b5 783d a989 973d
00000150: f6f7 263d 4156 9abc aaad 97bd ef86 77bd
00000160: add0 f9ba 8202 833c 5702 a6bc ac80 943d
00000170: ead6 75bd 5fbb eb3c 0fd8 d6bc 1975 38bd
00000180: b6ad 143d 7989 e4bc 07c3 2c3d ac03 5fbd
00000190: 1d70 6e3d 1596 553d b38a c1bd 057b 76bd
000001a0: 0307 f83c 3116 88bd dc54 2cbd 1d83 0f3c
000001b0: 09ce 2dbd f870 b9bc ff32 113d bb5d e2bc
000001c0: b6dd 9fbd 6f41 9a3d 1725 b0bd 3b76 623d
000001d0: a566 88bd 43e7 6bbd ece7 5a3d 01ab 773d
000001e0: 7e92 043c 0a9b 94bd 28e0 30bc 4c44 403d
000001f0: 4a5b c63c f989 13bb cb93 ad3b 10c4 073d
00000200: 2a89 8b3d 8b31 663d cad7 13bd 75dd 60bc
00000210: 6629 c5bd 3dd4 6bbd 7989 83bd 5958 bcbd
00000220: 5261 a03b ff70 8cbd becb 09bd a329 c13c
00000230: f9d9 2bbd ee97 68bd 70ef 863d baa8 7b3d
00000240: 8c62 8cbd 87d5 a2bd 7414 153d 5608 00bd
00000250: 95e7 943d fc2e a8bd 6d32 71bc 5b58 a5bd
00000260: 79c9 ecbc 9d7b 74bd 26ba 033d b680 05bc
00000270: f4d9 0a3c ff59 42bd ef1b 863b 66c2 b13d
00000280: cd50 403d a70f fd3c c550 b3bb aa79 c0bc
00000290: 93ad 21bd 1990 0d3d 2f15 993b 1937 6b39
000002a0: ca37 aebd 8167 193c a1f3 adbd a824 943d
000002b0: cb41 a1bb 858a a33c fa33 253b bb01 82bd
000002c0: 9bd2 a73b 6949 9e3d a4b6 64bd d8fc ba3d
000002d0: ed4b 69bd 43ef 0a3d e418 b63c 69b9 403d
000002e0: 8c04 0e3c a120 6abd e7ee a13d c688 683b
000002f0: 9ff5 abbd ce0e 06bd 3b94 0dbd 18d9 2b3c
00000300: 282d d33c 314b 393c 7a4f a63d 16e3 3dbd
00000310: e8b4 4cbd a4f4 28bd a54d a13d 6a8c 86bd
00000320: 3d48 f33c ec44 48bd 4e3b 04bd d4ac 7ebd
00000330: 22ac cfbc ea57 7abd 690c edbc 8944 d63c
00000340: 855b 9b3b f126 5dbd fa62 7f3d 216f 35bd
00000350: e2aa 79bc 42c0 183d 62b9 25bd a684 6a3d
00000360: 94c1 1ebd 8f41 973c 6c78 57bd 3171 74bd
00000370: 0dbb 2c3b 6960 c5bc a7b1 583d 122c 73bd
00000380: 03d9 2e3d 1214 87bd dfdb 21bd ed9b c43a
00000390: 6dec 313c f003 e83b 93fc 9d3d e191 ccbc
000003a0: 9ac3 85bd 93b1 46bd 249b 78bd 4621 be3c
000003b0: 34ce 413c fa08 cc3c 426f 44bc 8b6f e1bc
000003c0: 3915 0d3d b72e 8bbd 561c 55bd 1e91 373d
000003d0: 6baf 603d aeb0 213d 9143 b2bd 6aab f5bd
000003e0: 5de2 d2bc 40b0 eabc e7c6 b0bd fb87 833d
000003f0: d652 febc 6698 b1bd ca7d 913c 6cb5 88bd
-0.06746106 -0.0035189323 0.010418703 -0.079006076 0.061519615 0.017148072 -0.08059074 -0.004665679
-0.048643246 -0.020961724 -0.0040834593 -0.019150278 -0.025909556 -0.002570958 0.06723478 -0.07759931
-0.043002877 -0.022274684 0.023058083 0.07045387 -0.04365191 0.036222097 -0.014229303 -0.023552611
0.0064253793 0.008825239 0.056216724 0.06281857 -0.027007114 0.030915678 0.013114208 -0.05860859
0.061548978 -0.10878608 0.028249403 0.017732035 -0.027735732 -0.03137589 -0.02016777 -0.042532984
-0.037862737 -0.03539878 -0.033415258 0.051310454 0.054828197 0.03489118 -0.060096897 0.0060106283
-0.04587593 0.048025284 -0.032078303 -0.007244325 0.045561742 0.031215554 0.0129660135 0.0075335093
0.010943035 -0.08791759 -0.04968046 0.048218735 0.042374395 0.056310546 0.07619033 -0.029213753
-0.050233155 0.050271016 -0.020707643 0.0067486605 0.016940812 0.03168186 -0.0052174316 -0.050838586
0.00029133825 0.07466664 -0.026194323 0.010054946 0.025195116 0.0049356367 -0.013948098 0.060439214
0.03282989 0.054946575 0.06071982 0.073993035 0.040763818 -0.018839957 -0.07406171 -0.060431417
-0.0019059383 0.015992407 -0.020264788 0.07251105 -0.06001941 0.028775869 -0.026226072 -0.045033548
0.036298476 -0.027897583 0.04217818 -0.05444686 0.05821239 0.052145083 -0.09450283 -0.060175914
0.030276781 -0.06644858 -0.042073116 0.008759287 -0.04243282 -0.022636876 0.035449024 -0.027632585
-0.0780596 0.07532012 -0.08600824 0.055288535 -0.06660203 -0.057593595 0.053443834 0.060465816
0.008091567 -0.07256134 -0.0107956305 0.046940133 0.024213452 -0.0022512658 0.0052971593 0.033145964
0.06813271 0.05619959 -0.036094464 -0.0137246745 -0.09627037 -0.057575453 -0.06422705 -0.091965385
0.004894414 -0.0685749 -0.03364157 0.023579424 -0.04195592 -0.056785516 0.06588638 0.061440207
-0.06854734 -0.07950883 0.03639646 -0.03125795 0.07270733 -0.082120866 -0.014721495 -0.08073493
-0.028904663 -0.0596882 0.032159947 -0.008148363 0.008474816 -0.04744911 0.0040926854 0.08679657
0.046952058 0.030891253 -0.005472275 -0.023495514 -0.039472174 0.03456125 0.0046717147 0.00022431872
-0.08506735 0.009363056 -0.08493734 0.07233554 -0.004921173 0.019963512 0.0025207982 -0.06347986
0.0051215417 0.077288456 -0.055838242 0.09130257 -0.056957174 0.033919584 0.022228666 0.04705182
0.008668076 -0.057160024 0.07906895 0.0035481914 -0.08396458 -0.032728963 -0.03456519 0.010488771
0.025778368 0.011309431 0.08120628 -0.046359144 -0.049977213 -0.041248932 0.07876138 -0.065697506
0.029697532 -0.048893854 -0.03228312 -0.06217654 -0.025350634 -0.061118998 -0.028936582 0.026155727
0.0047411346 -0.053992216 0.06235025 -0.044295434 -0.015238496 0.037292726 -0.040459998 0.05725541
-0.03875883 0.018463878 -0.052605078 -0.05967826 0.0026356608 -0.024093824 0.052903797 -0.0593682
0.042687427 -0.06595625 -0.039516326 0.0015000083 0.010859591 0.0070805475 0.0771419 -0.024971904
-0.06531449 -0.04850919 -0.06069483 0.023209225 0.011828948 0.024906624 -0.011989417 -0.027519008
0.034444068 -0.067960195 -0.052028976 0.04481613 0.05485479 0.039475136 -0.087042935 -0.11995585
-0.025742704 -0.028648496 -0.086316876 0.064224206 -0.031045359 -0.08671646 0.017760176 -0.066752285

layer2.0.bias f4 [32]
00000000: d508 173d 1117 dfbc 8e71 16bd 2546 d73c
00000010: 2346 88bd 4f17 9e3d 75af 463c b3f2 72bd
00000020: 966a 01bd bb54 a8bd 1374 8cbc 7c2c 64bb
00000030: 6eae d6ba de14 48bd d752 a03c e57d ac3d
00000040: f1d2 96bd ad3b f53c 4283 833d e5d7 61bd
00000050: b459 c1bc 7b75 893d 51ed 90bd d78d a03d
00000060: 1051 8c3d 0d74 aabd 2aaa 59bd 63f2 913d
00000070: 0212 a73c 05ef cb3c 7e99 99bd 9b40 0ebc
0.036873657 -0.027232679 -0.036729388 0.026278565 -0.066540025 0.077192895 0.012126793 -0.059313487
-0.03159579 -0.08219286 -0.017145192 -0.0034816554 -0.0016378888 -0.048848026 0.019570751 0.0842245
-0.07364453 0.029935682 0.0642152 -0.055137534 -0.023602344 0.06711861 -0.070765145 0.07839554
0.06851399 -0.08322916 -0.053140797 0.0712631 0.020394329 0.024894247 -0.074999794 -0.008682395

layer2.1.weight f4 [32]
00000000: f63e 7b3f 012a 833f 35a6 7f3f b35a 7e3f
00000010: b466 7b3f eaef 7b3f 5411 7e3f 3304 833f
00000020: 28fa 7d3f 2ac5 763f be2d 833f bb09 7a3f
00000030: a701 833f b012 7c3f 2a6e 853f 0053 783f
00000040: 8395 7a3f 58eb 783f 9ef6 863f 4047 773f
00000050: 8bb8 823f 6bad 843f ffcf 803f e392 7c3f
00000060: 1f5c 843f 9a20 803f 23f7 833f 2d7b 813f
00000070: 13b6 843f e22e 7a3f 3bae 803f 8009 7d3f
0.98142946 1.0247194 0.99862987 0.99357146 0.9820359 0.98412955 0.9924519 1.0235656
0.99209833 0.963946 1.0248334 0.976711 1.0234879 0.98466015 1.0424244 0.9700165
0.97884387 0.97234106 1.0544012 0.96593094 1.0212568 1.0365423 1.0063475 0.9866163
1.0340613 1.0009949 1.0309795 1.0115715 1.0368065 0.9772779 1.0053171 0.9884262

layer2.1.bias f4 [32]
00000000: 907c 5b3c 493c bcbc 5bc7 6dbc b2ad 05bd
00000010: 23a7 013c dcb8 5bb9 b006 d1bb 9411 913c
00000020: 6207 4dbd 0d16 113d d4e3 debc 0417 443c
00000030: 38cc 5abc f9b8 48bd 07d7 113c da51 22bd
00000040: 9556 ef3b 7522 1bbd 4b5a aebc 18c8 553c
00000050: 3ab8 98bc 57ec 55bd c6a2 69bc 6a10 d03b
00000060: 8a3d 063c 1fd6 c93b 7e62 0e3d 1630 3c3d
00000070: aa22 bd3c 1e5c 35bd 0e8f 87bc bb34 aebc
0.013396397 -0.022977965 -0.014512862 -0.032636352 0.007913384 -0.00020954333 -0.006378971 0.017708577
-0.05005587 0.03542142 -0.027208246 0.011968378 -0.013354354 -0.04900453 0.008901364 -0.03962884
0.0073040226 -0.037874658 -0.02128329 0.013048194 -0.018642534 -0.052227344 -0.01426 0.006349613
0.008193383 0.0061595584 0.0347619 0.045944296 0.023087818 -0.044277303 -0.016547706 -0.021265378

layer2.1.running_mean f4 [32]
00000000: 9c73 3ebe 39b0 47bf 263a 90be 4381 3abf
00000010: ccb8 ab39 4ca3 ecbe 5315 903e 2e28 9fbe
00000020: 32ab a8be a971 6f3f 32e6 57bf 3543 c2be
00000030: 0538 88be 6ba1 abbe 97e0 75bf f109 23be
00000040: 6347 98bd 2317 08bf 2c56 59bf e525 94be
00000050: 27a2 8abe 6cf9 33bf a55e 5abe 4236 553f
00000060: 44a0 2fbf c677 8ebe 2c73 afbd 91fe e63e
00000070: fe70 fdbb 92db 8cbe a81f 81be 7b4a 053f
-0.18598789 -0.7800327 -0.28169364 -0.7285349 0.00032753346 -0.46218336 0.2814127 -0.31085342
-0.32943112 0.93532807 -0.84335625 -0.379419 -0.2660524 -0.3352159 -0.9604582 -0.15921761
-0.07435491 -0.53160304 -0.8489711 -0.2893516 -0.27076837 -0.7030246 -0.21325167 0.83285916
-0.6860392 -0.27825755 -0.08566889 0.45116094 -0.007734417 -0.2751127 -0.25219464 0.52066773

layer2.1.running_var f4 [32]
00000000: d59f 113e 3837 8c3e 547c 983e 0612 743e
00000010: 6b2d c73d 018c 2b3e 1a5f d83e 13a8 c23e
00000020: ad10 0a3e 8746 923e 1fa7 5b3f 9aa5 ee3e
00000030: 7b8e 753e 33da a63d d8e9 fe3e 7952 ca3e
00000040: 7be2 c33d 635c 993e 1d78 aa3e 2be6 3e3e
00000050: 9105 b93d eb03 c83e b1b8 693e d295 733e
00000060: f759 a93e 0250 f03d 95bc 533e 2b76 b73e
00000070: d2c9 fb3d d055 a43d 3081 083e 068b 293f
0.14221127 0.2738588 0.29782355 0.23835 0.0972546 0.16752626 0.42260057 0.38018855
0.13482924 0.28569433 0.8580188 0.4661072 0.23980133 0.08147087 0.49787784 0.39516047
0.09564682 0.29953298 0.33294764 0.1864249 0.09034265 0.3906549 0.2282436 0.2378762
0.3307645 0.1173401 0.20677407 0.35832343 0.122943535 0.0802418 0.13330531 0.6622776

layer3.0.weight f4 [64, 32, 3, 3]
00000000: 5e83 18b9 b4c7 2dbd fd5a 773d 679d 46bd
00000010: e851 733c 9c7a fbbc 1011 c73c c600 58ba
00000020: 9186 ca3c eefd 723c 125d eb3c 29fc b83c
00000030: 3183 58bd 087c 84bd 85de bfbc 373a 133d
00000040: 4e8e d6bc 128b 563c 93cc d3bb 534d c53c
00000050: 0920 d83c aa7a b13c 5246 41bd 17a1 5b3c
00000060: ffa0 97bd 2591 1bbd 48a6 60bd b308 503d
00000070: 43af 8bba 05b1 a93d 3daf 5e3d 94cd 2f3d
00000080: a08c 04bd d1bd 0dbb 1ca3 90bc 9d88 103c
00000090: 62df 31bd b189 a9bb 3965 88bc caf6 70bd
000000a0: bcfc f9bc b606 30bd 7d94 2cbd f498 a9bc
000000b0: 8c31 b6bc 5b21 6e3c a68a 0d3d 62c6 4c3d
000000c0: 8092 043d 459e 03bd 32bb 2bbd 9879 d83c
000000d0: 76a7 a13c 0122 703c 4d45 cfbc fd06 1e3c
000000e0: 4a64 b93b 2160 383d 9530 2cbd 7ee5 08bd
000000f0: 8562 933c 75eb 0bbb ec3e feba 8df2 09bd
00000100: 5336 643c 0123 083d c485 353d a031 d4bc
00000110: d387 a43c ea9f 51bd 80e7 a63c 8730 b9bc
00000120: 5200 1f3d 01c1 48bc 1b8d d0bc 4cc5 c53b
00000130: a570 36bd 381e 7abc c52e 143c ee9b 43bd
00000140: 075f 7bbd d1b1 863d 6358 61bd c1a8 7c3d
00000150: b54b f93c 0453 10bc b2a5 bebb 2edb bebb
00000160: 578d 0d3d fb33 82bd 2a40 0f3d 441f c2bc
00000170: 3b59 edbc e724 a8bc 2193 bd3b aca0 44bd
00000180: 1336 fe3b b355 84bd fdcb 5c3c 2965 3e3d
00000190: 6946 87bb 1d1e a0ba 5886 3e3d a94d 543d
000001a0: e9cb c33c 64fe c03c 739d 80bd 7f99 c8ba
000001b0: 29fc e5bb 573b 3cbc acb8 00bd 5e16 13bd
000001c0: e92c d23c 07ae 1b3d 0a55 543b 8d91 58bb
000001d0: 9d53 e1bc f9da 473d 9e77 8e3d 1801 573d
000001e0: 75c5 813c c313 a9bc 2881 103d e479 d03c
000001f0: 15d8 b6bc 448b 31bd 2669 cbbc 2930 6abd
00000200: abba 943c 4c92 6dbd d781 8cbd 1ba1 09bc
00000210: 762b ff3c 2484 9bbd d55e 9f3a 58cc e1bb
00000220: 0800 c33c 52d7 2fbd b88e 3b3b 1580 cd3b
00000230: 3651 d03c e802 4bbc 7983 08bc 46ef 3a3d
00000240: a0bb 15bc 224e 953d 1c65 5a3d fca9 ff3c
00000250: b3ac 4f3d 54ea 5cbd 2d0b a3bb 12b4 073d
00000260: 869b edbc 00e5 8abc 4fe8 e3bc f413 91bc
00000270: c96b 603d 5013 473d a65d 363d f922 fbbc
00000280: 01c6 50bc 7d2d 2d3c 6444 e93c d40d bd3a
00000290: 6935 debc c496 c0bc 5062 073d 1476 4dbb
000002a0: 33c7 84bc d41f b1bd 8dc5 913c 0439 4f3d
000002b0: 3b82 5d3c 2e53 363d 5ade 26bd f16d ed3c
000002c0: 9165 c23c 7c74 37bd 21c2 54bc 6d9e b63c
000002d0: acf9 33bd 7802 4abd 1694 c8bc 7c98 8c3b
000002e0: 9435 12bb 3627 85bc b01f 55bc 2f5e d1bc
000002f0: 9e69 203d 62c7 c7bc 1198 9039 1b56 0a3d
00000300: 1dc2 c53c 2b0d 3c3d b38b 7d3c c039 2abc
00000310: 720c 843c 464a 37bd a0e5 97bc 334b 88bc
00000320: 707b e5bc 8977 3bbb 3a7c dbbc 6662 143d
00000330: 9e4b 25bd 40fc c6bc 6d85 03bd 7b99 393d
00000340: cd65 633d 0f1e 0fbd dfcd 85bd 7d1a 0e3d
00000350: ed3d c2bc 296c 8dbd 1023 95bc b2c8 ba3b
00000360: 491d e8bb dc73 cc3c 7bc9 1bbd d210 353d
00000370: f996 a53c 1d72 9d3b 607b 2e3d 9887 e3ba
00000380: 4284 8bbc d5a8 043d cfd9 763d e038 0f3d
00000390: 0ffd 873c 1fa3 26bd 7722 0abd 6efa 423d
000003a0: 16d7 32bd 8308 23bd 8eb9 bb3c b948 00bd
000003b0: 4949 983d ca32 5d3d a385 313d 73d5 e83c
000003c0: e683 f13c 1996 033d db09 7fbc 64c3 423d
000003d0: 7860 583d 088a 243d 2d8f e3bc f831 013d
000003e0: d789 aa3c aa0c b83c 540d 3f3c 9434 583d
000003f0: bb5b 243d 7e75 b43a f23b 053d a8a5 5ebd
-0.00014544788 -0.04242678 0.060389508 -0.048489954 0.014851071 -0.030698113 0.024300128 -0.00082398613
0.02472237 0.014831049 0.028730903 0.022581177 -0.05285949 -0.064689696 -0.023421535 0.03594419
-0.026190903 0.01309468 -0.006463596 0.024084723 0.026382463 0.021664936 -0.047186203 0.013405106
-0.074037544 -0.037980217 -0.05484608 0.050789546 -0.001065709 0.08285717 0.05436634 0.042920664
-0.032360673 -0.0021628032 -0.017655902 0.008821634 -0.043425925 -0.005173885 -0.01664983 -0.058829106
-0.030516021 -0.04297515 -0.042133797 -0.020702817 -0.022240423 0.01453432 0.034556054 0.04999388
0.032366276 -0.03213336 -0.04192657 0.026425168 0.019733172 0.014656545 -0.0253016 0.009645221
0.0056577073 0.04501355 -0.04203852 -0.033421986 0.017991314 -0.002135006 -0.0019397414 -0.03367858
0.0139289675 0.033236507 0.044317022 -0.02590257 0.020084297 -0.051177897 0.02037406 -0.022606147
0.038818665 -0.012253047 -0.02545791 0.0060354825 -0.04454102 -0.015265994 0.009044354 -0.047756128
-0.061369922 0.065768845 -0.055015933 0.061684374 0.030431608 -0.008808855 -0.0058180923 -0.005824468
0.03455862 -0.06357571 0.0349733 -0.02369655 -0.028973212 -0.020525409 0.0057853614 -0.04800479
0.007757911 -0.06461658 0.013476369 0.046483193 -0.0041282666 -0.0012216006 0.04651484 0.051831875
0.023900943 0.023558803 -0.06280031 -0.0015304534 -0.007018585 -0.011488757 -0.031426117 -0.035910003
0.02565618 0.038007762 0.003239932 -0.003304574 -0.02750569 0.048792813 0.06956409 0.052491277
0.015841225 -0.020639306 0.035279423 0.025448747 -0.022319833 -0.043345705 -0.024830412 -0.057174835
0.018155416 -0.058000848 -0.068607025 -0.008400227 0.031148653 -0.07593563 0.0012159 -0.0068908148
0.023803726 -0.042929955 0.0028619003 0.006271372 0.02542935 -0.01239083 -0.008332127 0.045638345
-0.009138972 0.07290293 0.05331908 0.031208985 0.05070181 -0.05393441 -0.0049756975 0.033130713
-0.029004823 -0.016954899 -0.027820734 -0.01770971 0.054790292 0.048602402 0.044522904 -0.030656325
-0.01274252 0.010569927 0.028474994 0.0014423677 -0.027125077 -0.02350939 0.033052742 -0.0031350898
-0.016208267 -0.08648649 0.017794395 0.050591484 0.013519819 0.04451292 -0.040739395 0.028983088
0.023730071 -0.044788823 -0.012985737 0.02229234 -0.043939278 -0.04931876 -0.024484675 0.0042906385
-0.0022309767 -0.016254049 -0.013008043 -0.025557606 0.039163224 -0.024387065 0.0002757912 0.033773523
0.024140412 0.045910995 0.015475201 -0.010389745 0.016119216 -0.044748567 -0.01854211 -0.01663742
-0.028012961 -0.0028605184 -0.026792634 0.036226653 -0.040355317 -0.024290204 -0.032109667 0.045312386
0.055517007 -0.034940775 -0.065334074 0.03469323 -0.02371117 -0.069053955 -0.018205196 0.0057001943
-0.007083569 0.02495759 -0.038033944 0.044205494 0.020213591 0.004804863 0.04259813 -0.0017359136
-0.017030839 0.032387573 0.060266312 0.03496635 0.01660016 -0.04068291 -0.033724274 0.04760211
-0.043662153 -0.03980304 0.022915628 -0.031319354 0.07435853 0.054003514 0.043340337 0.028422093
0.02948184 0.032125566 -0.015566315 0.04754962 0.052826375 0.0401707 -0.027778232 0.031541795
0.02081768 0.022466976 0.0116608925 0.052784517 0.040126543 0.0013767926 0.03252787 -0.0543572

layer3.0.bias f4 [64]
00000000: ea5e 103d de7c 553d 3d94 91bc cc31 3a3d
00000010: 74e2 14bc 2805 5e3d 50dc f5bb a69b b8bc
00000020: 042a 7cbb 1398 c7bb a173 5d3d 02d3 46bd
00000030: 9ec6 46bc 1a3a 24bd 773e 1d3d 298c bfbb
00000040: 5788 72bd bf55 2cbd 7db7 49bd 8bdb 36bd
00000050: bc61 3cbc 4bcd 1dbd b958 da3c 3b0e 80bc
00000060: ceec 57bd 1807 bd3c 4092 50bc bc88 f33c
00000070: a5ca 55bd 57f3 07bc 05a0 a13c caf8 2c3d
00000080: 7a0f 463d 5c69 41bd b061 45bd 3223 293c
00000090: 80ef 5fbc e1af 103d 280f 37bc ddd8 103d
000000a0: 0f7b 38bd 5181 22bc 3dcf 533b 6a8c a6bc
000000b0: 42a8 dc3c 746c 273c ee36 283d 53f2 f5bc
000000c0: 0295 b53a 881d 623d ae5e ca3c b340 9b3b
000000d0: 9c59 45bd 5dac 1bbd 88d9 723d fa52 85bc
000000e0: 892c 14bd 5f69 1dbd d32a 4bbd c535 243c
000000f0: ccb3 3abc e1f1 993a f2e3 73bd 433d 113c
0.035246767 0.052121036 -0.01777088 0.045457646 -0.009087194 0.054204136 -0.00750307 -0.022535156
-0.0038477192 -0.0060911267 0.05406535 -0.048541076 -0.012132315 -0.040094472 0.03838965 -0.005845566
-0.059212055 -0.04207396 -0.049247254 -0.044642966 -0.011497911 -0.03852586 0.026653634 -0.015631786
-0.05271607 0.023074672 -0.012730181 0.029728286 -0.05219521 -0.008297763 0.019729624 0.04222945
0.048354603 -0.04721962 -0.048188865 0.010323333 -0.013667941 0.03532398 -0.011173047 0.035363067
-0.045039233 -0.009918527 0.0032319569 -0.020330627 0.0269357 0.010218728 0.04106801 -0.030022776
0.0013853612 0.055203944 0.02470335 0.0047379374 -0.04818116 -0.038006175 0.059289485 -0.016274918
-0.036175285 -0.038430568 -0.049601387 0.010022585 -0.011395406 0.0011745059 -0.059543557 0.008864704

layer3.1.weight f4 [64]
00000000: 6ba0 873f 3237 8b3f 5cb7 8a3f 8f6e 893f
00000010: bc0d 843f 1563 8a3f 1436 893f 4358 853f
00000020: 1db2 8a3f 4c09 8a3f 7b21 883f 329a 8b3f
00000030: 9c9d 893f d91e 8a3f 2b87 8a3f eedf 893f
00000040: 8812 883f 44df 893f 4bf3 873f 5c64 8c3f
00000050: d481 8a3f 6634 893f e325 8a3f bdae 893f
00000060: 191b 8a3f 2e81 8b3f 6fd9 8a3f d012 893f
00000070: a15e 8a3f 6f77 8b3f fc9d 8a3f ea04 8c3f
00000080: 2cf8 893f e857 883f 5133 8a3f cbbb 893f
00000090: 066e 8a3f d1af 893f b9e7 863f 5f59 893f
000000a0: ef22 8b3f 6cf3 883f 66fc 893f a2c6 8b3f
000000b0: 9ab3 8a3f b854 8b3f 57ab 8a3f 7d77 893f
000000c0: 5193 883f 6e3a 8c3f dc40 893f 87fb 873f
000000d0: cf82 8b3f a775 893f b865 833f 8ebe 893f
000000e0: 6e71 8a3f 7d60 863f a8ff 883f 0239 8b3f
000000f0: 2a3d 8a3f 46ba 883f 7363 8a3f 8c97 8a3f
1.0595831 1.0876219 1.0837207 1.0736865 1.0316691 1.0811487 1.0719628 1.041756
1.0835606 1.0784087 1.0635217 1.0906432 1.0751224 1.0790664 1.08225 1.0771463
1.0630655 1.077126 1.0621122 1.0968127 1.082087 1.0719116 1.0792812 1.0756451
1.078952 1.0898798 1.0847605 1.0708866 1.0810128 1.0895823 1.0829463 1.0939
1.0778861 1.0651827 1.079691 1.0760435 1.0814826 1.075678 1.0539466 1.0730399
1.0870036 1.0699286 1.0780151 1.0919993 1.083606 1.0885229 1.0833539 1.073959
1.0669957 1.0955331 1.0722919 1.0623635 1.0899295 1.073903 1.0265417 1.0761278
1.0815866 1.0498196 1.070302 1.0876772 1.0799916 1.0681846 1.08116 1.0827498

layer3.1.bias f4 [64]
00000000: 4454 d23c 6385 2a3d ff46 653d 7d12 d83c
00000010: 5613 743c 0e22 5a3d 7acb 333d e6b8 a73c
00000020: ee3d 3a3d 5492 233d 34e3 ad3c e3d3 7f3d
00000030: 8462 4e3d 2c3f 483d f086 6b3d fed5 553d
00000040: ae38 d43c aad4 313d 4e9f df3c a386 7b3d
00000050: 0929 753d 355d 4c3d b960 423d 1a93 313d
00000060: f806 f93c 62d6 773d 0da0 703d 6132 513d
00000070: b0b2 ef3c d754 293d a7b7 233d 6068 4d3d
00000080: b688 313d 4d06 133d 5e5b 3f3d 436a c83c
00000090: 1224 3c3d 019b 403d 563b c93c cefe 013d
000000a0: a39d 7e3d 0e48 3f3d 9da0 093c ab0a 853d
000000b0: 707f 323d 803c 023d eb4b 443d 29be 363d
000000c0: e05e f93c 9c62 3e3d 9092 2a3d 7283 cf3c
000000d0: 0952 923d 8a21 b23c 7a2b 543b 6d6c 0a3d
000000e0: 3e1a 843d 00b3 e53c 59e8 1f3d 2c37 5b3d
000000f0: 50af 3b3d 30ac c73c 1b54 373d ed18 823d
0.025674947 0.041631114 0.05597591 0.026376003 0.014897188 0.053255133 0.043895222 0.020473909
0.045469217 0.03993447 0.021226503 0.06245793 0.05038692 0.04888837 0.057501733 0.052206032
0.025905933 0.043415703 0.027297642 0.061407696 0.059853587 0.049893577 0.047455523 0.043353178
0.03039883 0.060507186 0.058746386 0.051073436 0.02926001 0.041340675 0.039970066 0.050148368
0.04334327 0.03589468 0.046717994 0.024464732 0.045932837 0.047022823 0.024564426 0.03173714
0.062162053 0.046699576 0.00840011 0.064961754 0.043578565 0.03179598 0.047923964 0.044614945
0.030440748 0.04648076 0.04164368 0.025331233 0.07144553 0.021744508 0.0032374547 0.03379481
0.06450318 0.028039455 0.039039943 0.053519413 0.045821488 0.024374098 0.044757944 0.063524105

layer3.1.running_mean f4 [64]
00000000: a67f e7bc 0871 98be 5ca3 c43e 662d 813e
00000010: a73b 6ebf 9de6 bc3d 281e 66be b9ea 7b3b
00000020: 48f6 bbbe 2cc5 e1be 8e06 e1be 7496 2b3f
00000030: 4cbf 71be fbaa d73e fe4a 26bf b611 883c
00000040: e3bf 163e 9e7a 1f3e 08a8 cfbc 5b70 19bd
00000050: a164 99be 9fbe d5bd 52de 093f a06a 36bf
00000060: 0d78 2d3b 6990 943d e36a 5bbf 0b1a 663e
00000070: e40b 183f f2d3 33be efd0 bc3e bafb 503e
00000080: 9770 183d ae17 d23e 1f0e 2f3d 14e1 363d
00000090: 5c79 ba3e 0b9a 243e 01ff aebe 14e6 babe
000000a0: 6cdd ae3e 0e75 59bf cabe e93e decd 603d
000000b0: c1cd 523e 080b 453e 8ef2 3fbe a695 bf3e
000000c0: ff1e 973e 37bb bc3e 7a8e 953e bac1 c73e
000000d0: 3f47 93bd b741 70bd fbb3 0bbf 737e 49bd
000000e0: 80b5 c13d 0729 943e 4dad b33e eddd 1d3d
000000f0: 528c 893f 2cbb 833d 33fb 053f 8ee0 cebe
-0.02825911 -0.29773736 0.38405883 0.2522995 -0.9305977 0.092236735 -0.22472441 0.0038439466
-0.36711335 -0.44095743 -0.43950313 0.6702645 -0.2360813 0.42122635 -0.6495818 0.016610008
0.14721636 0.15574118 -0.025348678 -0.037460666 -0.29959586 -0.10436749 0.5385486 -0.71256447
0.002646926 0.072541066 -0.8570997 0.22470872 0.59393144 -0.1756132 0.36878154 0.20408526
0.03721675 0.4103369 0.042738076 0.044648245 0.36420715 0.16074388 -0.34178928 -0.3650366
0.34153306 -0.84944236 0.45653373 0.05488383 0.20586301 0.1924249 -0.18744871 0.3741886
0.29515836 0.36861584 0.29210263 0.3901499 -0.071913235 -0.05865642 -0.54571503 -0.049192857
0.094584465 0.2893755 0.35093156 0.038541723 1.0745947 0.064321846 0.52336425 -0.40405697

layer3.1.running_var f4 [64]
00000000: b59a 063e 5bea 5f3e 8b74 1b3e af9c 0a3e
00000010: 911c 5f3e e301 6f3e 2222 523e 2525 6e3e
00000020: 04e5 fd3d 9d3e f23d 0e10 2f3e 05a6 1c3e
00000030: d775 703e 0998 e03d 0748 393e 0df9 403e
00000040: b0a4 e43d 96b6 283e 12ae 123e 10bd ec3d
00000050: da30 113e 16c4 383e 13bc 193e 43ce 3e3e
00000060: 8be2 173e f8a2 5f3e 5e20 a83e 45b6 173e
00000070: 679a 2e3e 399e 0d3e 5b3d 0d3e b204 483e
00000080: 681c 653e 3338 883e ca33 0e3e 68b2 033e
00000090: 0b20 063e 0bb5 263e 2d3d b83e 14f8 623e
000000a0: 5d50 1c3e 4512 873e ed23 e83d acd4 0d3e
000000b0: fc5b 603e 8e78 2f3e 2db8 513e a208 443e
000000c0: b698 153e 8010 003e 62fa 043e 7c25 3f3e
000000d0: f9cc 6d3e 7d0b 0d3e 3ff3 873e 41d4 1c3e
000000e0: 114a cc3d c1a6 253e 18b3 043e 912a 0a3e
000000f0: 1c22 5a3e afab d03d 3e70 073e 675a 123e
0.13144954 0.21866743 0.15181176 0.13536333 0.21788241 0.23340563 0.20520833 0.23256357
0.12397197 0.11828349 0.17095968 0.15297706 0.23482452 0.109664984 0.18093883 0.18845005
0.11164224 0.16475901 0.14324215 0.11559498 0.14178792 0.18043551 0.15013151 0.1863337
0.14832513 0.21839511 0.32837194 0.14815624 0.17051087 0.13829888 0.13792937 0.19533041
0.22374117 0.26605377 0.13886943 0.12861025 0.13098161 0.1628 0.35984173 0.22164947
0.15265031 0.26381126 0.11334977 0.13850659 0.21910089 0.17135832 0.20480414 0.19143918
0.14609036 0.12506294 0.12986138 0.18666643 0.23222722 0.13773914 0.2655277 0.15315343
0.099750645 0.16176893 0.12958944 0.134928 0.21302074 0.10188996 0.13226411 0.14292298

fc1.weight f4 [25, 576]
00000000: 3925 3fbd 15a6 573c 4d20 87bc 8c99 723c
00000010: 2326 94ba a1dc e83c bb92 753d c9d0 843d
00000020: fac3 973d 2af3 c23c 78b4 593d 6ca7 a23d
00000030: 7cdc 5fbd d78a 4a3c 895c 233c 76b0 d5bc
00000040: 849c 75bb b901 38bd c4f1 743d 5e11 463c
00000050: 891d c6bb 85d2 793c 2d2a bfbd 885a 893d
00000060: ec06 08bd cdce a5bc baed 363c 8fc9 fbbc
00000070: a0cd 04bd faeb 6d3c c65a 7dbd aad9 97bd
00000080: 72c6 11bc 84c0 9d3b 53f7 50bd 1247 fc3c
00000090: d87f 2ebc ea8f 02bd d97f e8bc aab5 2bbd
000000a0: 9153 373d 1fc1 47bc b2b0 433c a629 293d
000000b0: 1cff d0bc 184f 81bc c36c 0fbd 2bc4 10bd
000000c0: b8bb 84bd bfc3 9cbd 0844 bf3c 8f75 f33b
000000d0: 91ca 17bd 5135 443d 82bd 763d acd5 e33c
000000e0: 67dc 0f3c 33e3 ecbc d058 7f3d 0c8e 3f3d
000000f0: 4836 13bc cb3f c5bc 2585 353d a831 1d3d
00000100: 7903 41ba a422 463d 6d5b d9bc 67aa a93c
00000110: 5f81 c9bc f372 45bd 59ca 333d a616 e93b
00000120: 2891 983d a631 1fbd 38db 943c 1d70 433d
00000130: 109f 6c3d 48f1 833d 084f 433d 22e5 153d
00000140: 294a 263c 915f c33c f966 2cbd c213 febc
00000150: 6f5d 5f3d be76 8c3d e585 4c3d 73f9 8d3c
00000160: dfbb 96bc 40b4 eb3c 233c a33d 9b68 d5bb
00000170: 247d 01bd 4549 103d 0cec da3d 67d1 ae3c
00000180: 57da e43c 340b 963c f06d 1bbb 81db c23c
00000190: 6a0f bd3d 3d20 bd3d 80d6 9d3c 194d 483d
000001a0: c4bc 903c 36df 63bd 0601 853c b6e3 20bc
000001b0: 7a1f 113d cd0e 31bc 8b3f 953b 599f a3bc
000001c0: a0d1 c93c 35ad b0bc 00ae eabc acf6 b7bd
000001d0: 42dd 4d3c d8dd 0f3d 688a 87bc 626d 7f3d
000001e0: e763 063d f947 6dbc 5c4e 043d 5314 d03c
000001f0: f413 333d 4a05 9c3c 7c3e 573d 0908 97bd
00000200: 8943 f63c 5d74 713d 0de1 843a 7fb1 3d3d
00000210: 94af 8a3c ade2 2f3c e5c9 7f3c 2f0e 663c
00000220: 0b66 e63a d7a4 8939 2bd8 243c 079d b6bb
00000230: ef11 1d3d 5bd5 0fbd 69d4 bcbc 11f9 be3c
00000240: d58d 7c3d a906 62bd d259 23bd 9c98 ea3c
00000250: 9a47 6bbd 8f5a 2abd 4c89 653d 5ee0 a4bc
00000260: ad1b 3bbd 4973 6fbc 2d8a 2cbd 2381 56bb
00000270: 6588 a338 a40a 5d3c a625 2f3c 1002 50bd
00000280: 2132 04bd 66fa 813c 6a15 19bd ceb3 73bd
00000290: 808c 7dbb c1b6 fa3c aefc 9abc 0800 053d
000002a0: e790 41bd 88f0 773c d64f 473c bf62 02bc
000002b0: 77a7 b5bd 9abc b1bd 5d21 483d d74f a53c
000002c0: 1da6 19bd 6986 4bbb d21d b6bc ad06 273d
000002d0: 7e95 a93c e8eb 52bc e313 fabc 4f2d 0d3d
000002e0: 2f05 763b 4c88 ab3d 3ec5 46bd 0069 8fbc
000002f0: 11ee 2b3d 0882 f7bc a15b 05bd 55a3 15bd
00000300: 5a40 933c 91e0 0cbd 48c5 95bb 8692 febb
00000310: 9ec3 90bc dfc8 e9bc 3708 963d 883d 253d
00000320: eb66 de3d 0573 63bd 5724 5e3d 092b 433d
00000330: 3852 f23c 5723 e63c 5c00 81bc 5d0a e93c
00000340: a57e 073d 2197 543d c7ab 8bbc adb2 8f3a
00000350: 1ae1 82bc 5bd6 82bc e17d 5f3c 88a1 0b3d
00000360: 2454 2fbd c427 0cbd 514b ec3b ec8b e03b
00000370: 6a43 89bc 8e21 eb3b 503b 96bc 9183 823d
00000380: 55a7 193d c1e1 0a3b 86ae 3dbd e5c2 8abc
00000390: 6777 683c ce6c 91bd e2b6 623c a099 633c
000003a0: d147 6bbd 0a7f 113d e640 833c 044e b9bc
000003b0: e269 35bc 90c3 f1bb 0978 b4bc cf60 9e3c
000003c0: 1b33 8f3d 2e75 123b ae72 b23d 4240 5ebd
000003d0: 3f9c 61bd 6639 b73c 3252 4ebc 1766 7abd
000003e0: 0b9b 853c 2ce1 863d b31d 9abc 7990 78bc
000003f0: 542a 82ba 4403 8abd 4e26 0abd 7f35 b83c
-0.046666358 0.013162156 -0.016494894 0.014807116 -0.001130287 0.028425517 0.059954386 0.06485135
0.074104264 0.02379759 0.053150624 0.079420894 -0.05465363 0.012362204 0.009970793 -0.02608512
-0.0037477324 -0.044923518 0.05980088 0.012089102 -0.0060460013 0.015247946 -0.09334216 0.067067206
-0.033209726 -0.020240212 0.011165077 -0.030735759 -0.03242266 0.014521593 -0.061854146 -0.07414563
-0.008897411 0.0048142094 -0.051017117 0.030795608 -0.0106505975 -0.03187553 -0.028381275 -0.041921295
0.04475743 -0.01219204 0.011943983 0.041299485 -0.02551227 -0.015784785 -0.035015833 -0.03534333
-0.06481117 -0.07654523 0.02334787 0.0074297856 -0.037058417 0.04790241 0.060239322 0.027811848
0.008780575 -0.02891693 0.062340558 0.046766326 -0.00898511 -0.02407827 0.04431643 0.038377434
-0.0007362883 0.04837288 -0.026532853 0.020711137 -0.024597822 -0.048205327 0.043894146 0.0071132956
0.07449561 -0.038865708 0.018170938 0.04771434 0.05776888 0.06442505 0.047682792 0.03659547
0.010149517 0.02384928 -0.04209039 -0.03101528 0.054532465 0.06858586 0.04993238 0.01733086
-0.01840013 0.028772473 0.079704545 -0.006512714 -0.031613484 0.035226125 0.106895536 0.021340085
0.027936144 0.018315889 -0.002371665 0.023786308 0.092314556 0.092346646 0.01926732 0.04890165
0.017668135 -0.055632792 0.01623584 -0.0098199155 0.03543041 -0.010806751 0.004554694 -0.019973444
0.02463609 -0.021566967 -0.028647423 -0.08982596 0.012564959 0.035123676 -0.01654549 0.062360175
0.032810118 -0.014482492 0.03230129 0.025400316 0.0437202 0.01904549 0.052549824 -0.073745795
0.0300615 0.058948863 0.0010137871 0.04631185 0.016929425 0.010735196 0.0156121 0.014041468
0.0017578019 0.00026253492 0.010061304 -0.0055729183 0.03834718 -0.03511558 -0.023050504 0.023312123
0.0616587 -0.055182133 -0.03988058 0.028637223 -0.05744133 -0.04159027 0.05603914 -0.020126518
-0.04568069 -0.0146148885 -0.042123962 -0.003273078 7.797851e-05 0.013491306 0.010690128 -0.050783217
-0.03227437 0.01586647 -0.037373938 -0.059497647 -0.003868848 0.030604722 -0.018919315 0.032470733
-0.04725733 0.015133031 0.01216503 -0.007958113 -0.08869832 -0.08678551 0.048859943 0.020179672
-0.037511934 -0.0031055456 -0.022231016 0.04077785 0.020701166 -0.012873627 -0.03052706 0.034467038
0.003753971 0.08375606 -0.04852795 -0.017506123 0.041975085 -0.03021337 -0.032558087 -0.03653272
0.017975021 -0.03439385 -0.004570637 -0.007768932 -0.017671403 -0.028538166 0.073257856 0.040341884
0.10859474 -0.055529613 0.054233875 0.047648463 0.02958022 0.028093023 -0.015747242 0.028447324
0.033079762 0.05190194 -0.017049683 0.0010963284 -0.015976477 -0.015971353 0.013640852 0.034089595
-0.042804852 -0.03421761 0.007211127 0.0068526175 -0.016755778 0.007175631 -0.01833883 0.063727506
0.037513096 0.0021191689 -0.046309017 -0.016938636 0.014188624 -0.07100831 0.013837548 0.0138916075
-0.057441536 0.035521545 0.016022157 -0.022620209 -0.011072608 -0.007378049 -0.022029893 0.019333271
0.069921695 0.0022347677 0.0871328 -0.0542605 -0.05508065 0.022366237 -0.012592839 -0.061132517
0.016309282 0.06585917 -0.01881299 -0.015171164 -0.0009930828 -0.06738904 -0.033727936 0.022486446

fc1.bias f4 [25]
00000000: 8010 6cb9 2e2b 673d c4ab a3ba ffe1 97bb
00000010: 5c70 203d 0d1f cb3a 8bf9 3fbd ea67 17bd
00000020: dc8f a53a d354 b6bc 52ab 45bd b055 2cbb
00000030: cfe2 0c3c a310 3a3c 4395 bcbb a176 0bbd
00000040: 58fa 50bd 0ece 02bd a289 3d3d 36b2 063d
00000050: 270a 5a3b e396 933c bc26 d6bc 3102 a03c
00000060: 3c9e e13b
-0.0002251286 0.056437664 -0.0012487103 -0.004635095 0.039169654 0.0015496925 -0.046868842 -0.036964335
0.0012631374 -0.022257244 -0.048259087 -0.002629619 0.008598997 0.011356506 -0.005755098 -0.03404868
-0.051019996 -0.03193479 0.046273835 0.0328848 0.0033270211 0.018016284 -0.026141517 0.019532295
0.006885318

fc2.weight f4 [5, 25]
00000000: ebe0 57be cddd 873e cfbb 3dbe df14 483e
00000010: 4f2c 8abe 46b7 693d 54c8 693d 56b0 05be
00000020: e6b6 08be 358d 893c 891d 8bbd 0146 e9bc
00000030: 5f54 a33c 7a6f ca3c a332 d73c 46a3 903d
00000040: eb35 0dbd b54f a53d 63e2 8a3e 032e d83d
00000050: a86d 62be 4abb 11bd b3c4 02bd bc42 2bbe
00000060: 9745 c83d 2f5d 02be 909d a13d d491 b3bb
00000070: 39f8 e33c 5831 153e 2bee 973d c320 babc
00000080: 3ad6 aabd 0b9d 6c3e cabf 75be 12c2 8cbd
00000090: 9f12 22be 9e7f 5bbd f468 99bd 4580 75be
000000a0: a213 473e 4514 adbd f724 13be e11c 5c3c
000000b0: 09b7 0abd d346 84bd 44a3 1c3d 43ee 30be
000000c0: 7606 63be dd84 773e f2f3 923d dbec 00bd
000000d0: 591c ae3d ab1d 81be 85f1 7c3d 3e8b 073e
000000e0: 403d 103e b573 d43d a850 9c3d ffc6 7c3d
000000f0: ca1c ccbc 5c2b 89bd 7d41 193e 3b71 353e
00000100: 72b5 57bd 088c 8c3c 2750 ed3d 7f1a 5a3e
00000110: 5906 0b3e cea1 263e afb4 1dbe 20fe f4bd
00000120: 1538 6f3e 74a7 5b3e e4dd 05be 8eef 953e
00000130: 56f9 c6bd 286e ec3d b22c 863d 2614 8abd
00000140: 66ed e0bd 6d6a a4bd 9bbd 313d 9196 d2bc
00000150: 0762 763e e4c8 1c3e 432a 443e 7704 d9bd
00000160: e1d7 ffbd 79aa ad3d 79e8 42be 4a7a bf3d
00000170: 5978 bf3d 2a91 493b d37c 54bc f7fd 6abd
00000180: 1ea2 bdbd 315e 56be 5877 01be c77f 4abd
00000190: 3219 15be d4ed 9c3d 503b 003e 712e bc3c
000001a0: 6f9d 76be dd11 12be a0b4 433e 3f63 653e
000001b0: c5e8 4d3e cca2 1cbd 8731 22be 630c 6bbe
000001c0: 015f 833d 6510 29bd 0d59 f13d 2edb 7bbe
000001d0: 82e3 c9bd e91e 56bd 86b0 e9bd a999 b63d
000001e0: e212 80bc 4d05 043c 72ce 15be 8c1f c73d
000001f0: 10f2 3fbe
-0.21081893 0.26536408 -0.18528675 0.19539212 -0.2698693 0.05705955 0.057075813 -0.13055548
-0.1335102 0.016790966 -0.06792743 -0.028475763 0.019937692 0.02471136 0.026269263 0.07062392
-0.03447525 0.080718435 0.27125844 0.10555651 -0.22112143 -0.035579003 -0.03192587 -0.16724676
0.09778898 -0.12730859 0.07891381 -0.0054800306 0.027828323 0.14569604 0.07418474 -0.0227207
-0.08341642 0.23106782 -0.23998943 -0.068729535 -0.15827416 -0.053588502 -0.07490721 -0.23974712
0.19441083 -0.08451132 -0.1436957 0.01343462 -0.033865962 -0.06458821 0.03824164 -0.1727839
-0.22170433 0.24171777 0.07175435 -0.031475883 0.08501501 -0.25217947 0.06175377 0.1323671
0.14085865 0.10373632 0.076325715 0.061713215 -0.024916071 -0.06697723 0.14966388 0.17718975
-0.052663274 0.017156616 0.115875535 0.2129917 0.1357664 0.16272661 -0.15400957 -0.11962533
0.23361237 0.21450597 -0.13072926 0.29284328 -0.09715526 0.11544448 0.06551494 -0.06742124
-0.1098278 -0.080281116 0.043393712 -0.025706561 0.24060832 0.15311009 0.19156747 -0.10596555
-0.124923475 0.08479781 -0.19033994 0.09349497 0.09349126 0.003075669 -0.012969214 -0.057371106
-0.09259437 -0.20934369 -0.12643182 -0.049438264 -0.14560392 0.076625496 0.12522626 0.022971364
-0.24083494 -0.14264627 0.19111872 0.2240114 0.20108326 -0.038241193 -0.15839206 -0.22953944
0.06414605 -0.0412754 0.11784563 -0.24595329 -0.09857847 -0.052275572 -0.11410622 0.08916027
-0.015634004 0.008057904 -0.14629534 0.09722814 -0.18744683

fc2.bias f4 [5]
00000000: e5a1 cdbd 1496 ccbd c411 9a3d 8cd5 2f3e
00000010: 3d1d 6cbd
-0.100406446 -0.09989563 0.0752292 0.17171305 -0.05764507

exp_avg f4 [16, 3, 3, 3]
00000000: fd70 a639 b796 8639 fbc5 8239 ce54 9639
00000010: dca4 8239 dd47 8139 521f 9c39 b809 9739
00000020: bcc1 9639 47ad 1739 a677 d238 c073 b438
00000030: 6651 1539 a7c0 da38 20d4 b438 523d 4639
00000040: 057b 2c39 626f 1c39 d63a b238 184b 0438
00000050: 107f 1937 a84a b138 e05c 0538 506b e036
00000060: 4244 0b39 3672 bf38 fbf8 8a38 807f 2337
00000070: c07c 5636 74b2 8c36 e60a 6037 c546 2937
00000080: 8913 2137 0057 5334 c8d4 7636 c868 1136
00000090: 2b7c 35b8 74a6 46b8 8ca1 3db8 5546 3bb8
000000a0: 64e7 37b8 7800 2eb8 a680 8fb8 fabe 84b8
000000b0: c6c2 78b8 073e 91b8 f02e 98b8 a13d 8eb8
000000c0: 9167 88b8 8224 88b8 50fa 7db8 b210 a2b8
000000d0: 49c1 94b8 5b16 8bb8 f479 e7b7 7240 edb7
000000e0: 7dd2 83b7 74ed a7b7 6c0d dab7 4192 9eb7
000000f0: 098a b6b7 eeb8 f0b7 3868 b9b7 bc67 eb36
00000100: 2a06 45b6 b00e 15b6 2e05 4f37 fef9 23b5
00000110: f5ad abb6 b93a 7837 c89f 2636 0025 53b6
00000120: 5dde d237 7bc4 8537 af4f 8437 6d07 b737
00000130: 0ffb 0d37 ae97 4736 699c 9e37 ae45 a736
00000140: 0498 17b6 dacb 6539 6803 7939 7be0 eb39
00000150: 9a20 5539 4049 6339 babc d739 e6d0 5039
00000160: 4c9a 8739 356c d739 61a2 343a fcef 303a
00000170: 696e 583a a4a8 3a3a 5208 303a 5d60 4d3a
00000180: 1ed2 3c3a 6359 3f3a 4655 533a 197f 2a3a
00000190: aa5c 1d3a 185f 3e3a 31ad 323a 7a09 1d3a
000001a0: 6093 393a e7e2 413a 7925 323a 8c37 443a
000001b0: b7ef d5b9 0c93 f7b9 407e ffb9 c68e f0b9
000001c0: 6329 09ba 7a60 0eba f4d9 0bba 5119 18ba
000001d0: 2946 1bba 7fc7 1cba efad 15ba 5f19 09ba
000001e0: 0a91 31ba c41c 2bba 1a93 1fba a995 57ba
000001f0: 5c99 51ba 413f 44ba fb0c 05b9 b641 d9b8
00000200: 4099 a5b8 9ddc 26b9 472f 0eb9 5a9d eab8
00000210: ca0b 92b9 bedf 7fb9 e6a8 5eb9 4100 4d39
00000220: 7a21 5b39 1956 5939 2f50 4339 b585 4e39
00000230: 40a5 4539 1b35 3439 1efe 3c39 aea6 3639
00000240: 819d 0639 2f7e 0b39 2675 fc38 de46 0639
00000250: ca99 0b39 0ef0 f038 2391 0939 8359 1039
00000260: 1f1e fc38 dc55 e237 ddef ea37 8a94 b837
00000270: 598e 4c37 eeda 4537 783f 50b6 68a1 ef37
00000280: e977 eb37 aed9 2137 5de9 a6b8 95da 82b8
00000290: c8e1 afb7 876a 99b9 adb0 8ab9 c403 5ab9
000002a0: 94a5 a7b9 8e00 95b9 e05a 6ab9 0313 78ba
000002b0: 8eff 31ba 860a cdb9 f06e 94ba d926 5dba
000002c0: 74e1 0dba bfa8 a1ba f0b3 7fba cc27 36ba
000002d0: 7a19 1bba e0b2 84b9 38a8 7938 56fb 22ba
000002e0: 1820 8db9 f44d 7538 5e9d 10ba 7b24 7ab9
000002f0: 6028 3f38 9965 5e38 da46 3538 3204 9c37
00000300: a314 8c38 2381 6b38 7cd1 d637 0a9c b138
00000310: e4d9 a238 12dc 3938 db5e 11b7 cad4 d9b7
00000320: 72af 6ab8 f8c9 8e36 e177 43b7 5654 49b8
00000330: 273a f537 dca4 8837 2090 b0b7 1595 b8b8
00000340: 0dc3 dfb8 d4b8 0bb9 ca0b 9fb8 674e c5b8
00000350: 8918 04b9 634c 0eb8 40b0 55b8 ad29 b3b8
00000360: 8073 c439 ac86 d039 0e7c e139 e436 c139
00000370: 1444 c839 7004 ce39 30f9 b139 a28f b639
00000380: f2f6 b639 2c45 4139 a118 3739 59a1 3e39
00000390: 9ece 0639 0a53 e338 c24e d938 3c59 5838
000003a0: 1bfc 1b38 ddd1 1138 d3ae f338 70a4 c338
000003b0: 640c ce38 ad7e 7838 5a55 b437 7af8 1837
000003c0: a6ca 03b8 e41c 83b8 4130 90b8 f703 d4b8
000003d0: 2528 c9b8 0794 bab8 320a d6b8 ca9c c4b8
000003e0: d3d8 afb8 28d2 1cb9 b99a 0eb9 ed01 f7b8
000003f0: 7e2f 44b9 1451 41b9 37a9 34b9 d681 42b9
0.0003174617 0.00025670763 0.0002494304 0.00028673414 0.00024918362 0.0002465834 0.00029777974 0.00028808205
0.00028754573 0.00014465033 0.000100358666 8.604629e-05 0.0001424007 0.00010430934 8.62258e-05 0.00018905595
0.00016449027 0.00014918813 8.4986605e-05 3.154119e-05 9.149095e-06 8.4539235e-05 3.1796168e-05 6.688213e-06
0.00013281501 9.128863e-05 6.626729e-05 9.745243e-06 3.19611e-06 4.1931e-06 1.3353978e-05 1.0089662e-05
9.600896e-06 1.9682557e-07 3.6780712e-06 2.1667674e-06 -4.3269403e-05 -4.73619e-05 -4.5211564e-05 -4.4649776e-05
-4.38461e-05 -4.148527e-05 -6.842734e-05 -6.329823e-05 -5.9309205e-05 -6.925692e-05 -7.2566676e-05 -6.782567e-05
-6.504276e-05 -6.4917855e-05 -6.0553022e-05 -7.727872e-05 -7.093192e-05 -6.6322005e-05 -2.7594135e-05 -2.8282611e-05
-1.5714433e-05 -2.0018524e-05 -2.5993875e-05 -1.8903173e-05 -2.1760368e-05 -2.8696344e-05 -2.210225e-05 7.015622e-06
-2.9358876e-06 -2.221128e-06 1.23393675e-05 -6.108602e-07 -5.1164484e-06 1.4795624e-05 2.4828933e-06 -3.1462987e-06
2.5137497e-05 1.5946329e-05 1.5772732e-05 2.1818758e-05 8.462709e-06 2.97416e-06 1.8907902e-05 4.9850996e-06
-2.2589238e-06 0.00021915082 0.0002374776 0.00044989944 0.00020325408 0.00021675695 0.00041148608 0.00019914247
0.00025864167 0.00041088616 0.00068906514 0.00067496276 0.00082561985 0.00071204663 0.0006715107 0.00078344886
0.0007202941 0.00072993914 0.0008061718 0.00065039244 0.0006002883 0.0007262095 0.00068159687 0.0005990487
0.00070791505 0.0007396177 0.0006795745 0.0007485084 -0.00040805127 -0.0004722107 -0.00048731454 -0.00045882742
-0.00052323024 -0.0005431246 -0.0005334907 -0.0005802112 -0.00059232354 -0.0005980655 -0.0005709817 -0.0005229916
-0.00067736267 -0.0006527419 -0.00060872885 -0.00082239 -0.00079955696 -0.0007486232 -0.00012688704 -0.00010359606
-7.896358e-05 -0.00015913179 -0.00013559787 -0.000111872985 -0.00027856074 -0.00024402046 -0.0002123449 0.00019550418
0.00020897939 0.00020726807 0.0001862652 0.000196955 0.00018848944 0.00017185921 0.00018023743 0.00017418966
0.0001283791 0.0001330308 0.00012038117 0.00012805636 0.00013313364 0.000114888055 0.00013119406 0.00013766256
0.00012021907 2.698128e-05 2.8006669e-05 2.2003678e-05 1.219249e-05 1.1793089e-05 -3.103136e-06 2.856618e-05
2.807002e-05 9.64703e-06 -7.958964e-05 -6.239597e-05 -2.0966763e-05 -0.00029261803 -0.00026453045 -0.00020791503
-0.00031976087 -0.00028419908 -0.00022349833 -0.0009463282 -0.0006790095 -0.00039108488 -0.0011324566 -0.00084362697
-0.0005412318 -0.0012333615 -0.0009754291 -0.0006948679 -0.0005916577 -0.00025310274 5.9522892e-05 -0.00062172615
-0.00026917527 5.848515e-05 -0.00055166136 -0.00023855448 4.557555e-05 5.3023545e-05 4.321975e-05 1.8598603e-05
6.679564e-05 5.6148634e-05 2.5608337e-05 8.469082e-05 7.765347e-05 4.4312394e-05 -8.664759e-06 -2.5967503e-05
-5.5953344e-05 4.255442e-06 -1.1650817e-05 -4.800068e-05 2.9233355e-05 1.6289232e-05 -2.1047948e-05 -8.8015724e-05
-0.000106698 -0.00013324927 -7.583907e-05 -9.4082956e-05 -0.00012597641 -3.392658e-05 -5.0947303e-05 -8.543148e-05
0.00037470087 0.0003977319 0.00043007772 0.00036852725 0.00038197695 0.00039294688 0.0003394573 0.0003482076
0.00034897734 0.00018431683 0.00017461415 0.00018179919 0.00012856207 0.00010839671 0.00010362036 5.158152e-05
3.718967e-05 3.4766144e-05 0.000116197065 9.3289535e-05 9.8251534e-05 5.9245784e-05 2.1497417e-05 9.117759e-06
-3.1421565e-05 -6.251948e-05 -6.875443e-05 -0.00010109686 -9.5919044e-05 -8.8967434e-05 -0.00010206214 -9.3752125e-05
-8.385037e-05 -0.00014955609 -0.00013599814 -0.000117782365 -0.00018709709 -0.00018436118 -0.00017229175 -0.0001854965
